examples/hgcal_autoencoder/fixed_decoder/fixed_decoder1/best_loss.pth (torch, 95078 bytes, 22 tensors)

encoder.dense1.weight f4 [128, 64]
00000000: 82a4 303d 2869 ca3c bdff f93d 61fb c23c
00000010: 5926 3c3d 4a7e 743d 1cd9 37bc 0d74 c8ba
00000020: d6c4 493d 9cac 5c3d 5ecc a13b 0676 933c
00000030: fd56 10bc 3b79 2e3c dcb3 c73c 362f 953c
00000040: 6dbf c83c ef32 0fbc 1d4e ce3d 2720 463d
00000050: ad72 e8bc ca25 b83b ba14 59bc 27e0 a73d
00000060: 19fb 0f3e 9013 a83d 3f8c dd3c a940 2a3d
00000070: 9442 cf3d 00cf ad3d d930 343b 5984 a6b9
00000080: 9b30 bb3e 9be1 9b3e 9836 043e 0e0c 9a3d
00000090: cce1 973b 006f 66ba 9e01 143b 73bc 20bb
000000a0: eed6 823e 7340 9f3e 912c a63d e48a 843d
000000b0: 6f41 36bb 7ecd 313b 109b 37bb f14e cb3a
000000c0: f6da 7ebe 1f9d eabe c9e5 a8be adbe 8abe
000000d0: 9dd2 3b3b 6433 a8ba 1e30 ac3b 5c93 8a3b
000000e0: 47f8 88be 09f8 bcbe 8ae8 95be c6ba 81be
000000f0: 096c 5fbb f660 603b 7dc3 513b 4073 993b
00000100: 337c 353e cda9 253e 5025 903b fb99 383e
00000110: f1d9 0f3d e622 923c 5d0d 5ebd 8ddb c6bc
00000120: 7bf5 643e 2f46 353e 8eba 083e f10a f23d
00000130: 34ca 6e3e 4b07 a9bc 236c ccbc 5f97 34bd
00000140: 0945 39bc f2b0 473e 8c8c 61bd 6ba2 093e
00000150: 851e 553d 023c ac3b 9e59 22bd cd2a 513e
00000160: 5866 423e dd7a 113e 2a1d fb3d 95f2 eabb
00000170: d88c e2bd 80bf fdbd dd17 5ebd ad05 823e
00000180: c3b1 233e c2e0 273e bb8e 013e 103e 283e
00000190: 8862 9e3b 8ca0 7fba 3707 433b 9eaf 153b
000001a0: 89d3 163e 1f19 243e 825d 2c3e e397 1bbc
000001b0: 12fb 6c3b 9673 8f3a 0e65 de3a 1916 813b
000001c0: 168d 513e 78fa 513e f51c af3c c167 203e
000001d0: bb6e 7a3b 96bd 563b e339 7abb 27fd 78bb
000001e0: d4ae 303e 354c 1e3e f03e 073e a4f1 003e
000001f0: 5f2f 383b 3664 3fbb 808f a2bb f2f9 92ba
00000200: 1db2 243d fb8a cf3d 9787 ac3d 0e26 4ebe
00000210: 70e1 1dbe da3b 243e f4c5 243d 2216 ef3d
00000220: c160 3a3e 8e06 ddbd c6d0 d83d a440 2c3e
00000230: a854 e13c 7d11 afbd dc19 34be c9ef f13d
00000240: 0cba 03bc 6b3e 75be 6536 76be 5e48 8cbd
00000250: f25d 0a3e 71da 4cbe 2938 eebc d550 6c3d
00000260: 24c9 0e3e c62e 95be 66a0 c4be ec77 c1be
00000270: abb6 eabc d50f 4f3e 085b 383e 8030 e8bc
00000280: 3720 7a3d c378 4ebe 8caf c1be 1e86 abbe
00000290: 8001 33bb a3ea 953a 31ba fbba 5c62 9bba
000002a0: a647 7a3e 462d b6bd d208 b4bd 7305 8cbd
000002b0: b9b6 7c3a c60b ab3a 448b ac3b 7698 a83b
000002c0: bf5e 48be ce11 963d 6614 c03d bc65 1c3e
000002d0: 08f4 acba ee7e dfb9 e907 95bb 8f8a 88ba
000002e0: 2a47 9ebe 6d75 a6bc 2345 debd 2434 acbe
000002f0: c7ff 3bb9 cf3e 3bbb c959 f73a 9112 05bb
00000300: 6d5c 3abd 8ee9 303e c25d e63b bf88 2639
00000310: 64f8 50bd 5e10 363e 6968 373e 7346 10bd
00000320: 8b39 44bd d8aa 303e 56d5 373c 40f2 23bc
00000330: a3ac 0fbd 103d 22bd f7ff b7bc dd67 063b
00000340: 872a 5c3e 515e 15bd 565c 433e 4ef9 a4bd
00000350: 30fc 7bbc b26c 3f3e d7da 463e 4d78 6f3c
00000360: 437f 14bd bf49 62bd bd58 9bbd d575 533e
00000370: f77c 333e 6166 a0bd 1d7c 36bc 27c3 4f3e
00000380: e860 c2bd d68a ffbd ca8c f8bd f535 0cbd
00000390: 6ee2 883b ed92 a33b 3e6a 8cba 8566 86bb
000003a0: 68e6 25bd ad10 d23c ba4e c3bd 6bb2 0dbd
000003b0: ebac 71bb d862 633b de76 583b 232b 89bb
000003c0: f3a2 a9bd a1e3 a0b9 c7cc 4f3e 80c0 333c
000003d0: 2f6b 2fbb 3702 fd38 b282 a2bb e743 74bb
000003e0: 304b 08bd 7b08 1abd 865e ebbc b5dc 8cbc
000003f0: 5223 7839 6374 1a3b a3b5 253a b638 2dbb
0.043125637 0.024708346 0.12206981 0.023801507 0.04593501 0.05969075 -0.0112211965 -0.0015293375
0.049259983 0.05387555 0.0049376925 0.018000614 -0.008809802 0.010649021 0.024377756 0.018210988
0.024505341 -0.008740171 0.10073493 0.048370507 -0.028374994 0.005619739 -0.0132495705 0.081970505
0.1406063 0.08206856 0.027044414 0.04156557 0.10120121 0.08486748 0.0027494936 -0.00031760594
0.3656052 0.3044556 0.12911451 0.075218305 0.0046350714 -0.0008790344 0.0022583972 -0.0024526387
0.25554603 0.31103858 0.08113969 0.06471804 -0.0027809998 0.002713054 -0.0028016008 0.0015511197
-0.24888214 -0.45823 -0.32987812 -0.270986 0.002865947 -0.0012832698 0.0052547595 0.0042289924
-0.2675192 -0.36907986 -0.29278976 -0.2533781 -0.0034091494 0.003423748 0.003200739 0.0046829283
0.1772316 0.16178055 0.0043989792 0.18027489 0.035119954 0.017838906 -0.054211963 -0.024274612
0.22359268 0.17702554 0.13352415 0.11818493 0.23319322 -0.02063336 -0.024953907 -0.04408967
-0.011307963 0.19501093 -0.055065677 0.13440864 0.05203106 0.005256177 -0.039636247 0.20426483
0.18984354 0.14207025 0.12261422 -0.0071700313 -0.1106202 -0.12390041 -0.054221977 0.25394955
0.1598578 0.16394332 0.12652104 0.16429925 0.004833523 -0.00097514014 0.002975894 0.0022840272
0.14729132 0.16025208 0.16832545 -0.009496662 0.0036160392 0.0010944481 0.0016967373 0.003939402
0.20463976 0.20505702 0.021376112 0.15664579 0.0038212973 0.003276681 -0.0038181476 -0.0037992687
0.17254192 0.15458758 0.13207603 0.12592179 0.0028104407 -0.0029204017 -0.004960954 -0.0011213406
0.040208925 0.1013393 0.08424299 -0.20131704 -0.15418029 0.16038457 0.040227845 0.116741434
0.18200971 -0.10792266 0.105866954 0.16821533 0.027506188 -0.085482575 -0.1758799 0.118133135
-0.0080399625 -0.23949592 -0.24044187 -0.068497404 0.135124 -0.20005204 -0.029079514 0.057694275
0.13943917 -0.29137248 -0.38403624 -0.37786806 -0.028651556 0.20220883 0.18003476 -0.02834344
0.06106588 -0.20163254 -0.37829244 -0.3350076 -0.0027314126 0.0011437725 -0.001920527 -0.0011854875
0.24441394 -0.08895354 -0.08790745 -0.06836977 0.0009640265 0.0013049773 0.005265625 0.005145128
-0.19567393 0.07327615 0.09378891 0.15273184 -0.0013195286 -0.00042628444 -0.004548062 -0.001041727
-0.3091367 -0.020319665 -0.108530305 -0.3363353 -0.00017928994 -0.0028571372 0.0018871363 -0.0020305256
-0.0454983 0.17276594 0.00703022 0.00015881936 -0.051018134 0.17779681 0.17910923 -0.035223436
-0.04790644 0.17252672 0.011220297 -0.010006487 -0.03507675 -0.039609015 -0.02246092 0.0020508685
0.21500598 -0.0364669 0.19078192 -0.080553636 -0.01537995 0.18693808 0.19419418 0.014616084
-0.03625418 -0.05524611 -0.07585285 0.20650418 0.17528139 -0.07832027 -0.011137989 0.20289288
-0.0949114 -0.12477653 -0.121362284 -0.034231145 0.004177383 0.00499188 -0.0010712815 -0.0041015767
-0.040502936 0.025642717 -0.095365 -0.03459398 -0.0036876749 0.0034696367 0.0033029835 -0.0041860505
-0.08283033 -0.00030687175 0.2029296 0.010971189 -0.0026766767 0.00012064393 -0.0049594278 -0.0037271918
-0.03327483 -0.037605744 -0.028731596 -0.017195085 0.00023664281 0.0023567907 0.00063213165 -0.0026431507

encoder.dense1.bias f4 [128]
00000000: 46ad 1dbd 49a2 103e 1a9f 93bd 4a51 c73d
00000010: 3a52 393d ec79 00be 12d2 7bbd 8a02 533c
00000020: 0d47 843d 718d c6bd a913 883d 9137 3e3d
00000030: 8cd9 973d 2336 4bbc 216b 54bd 5a1e bebd
00000040: e228 c3bd 0a1f 9cbd e893 8ebd 0ed0 173c
00000050: e398 cc3d 4ed7 e2bb 328f 03bd 0908 11bd
00000060: 45de f83d d526 723d 4293 c0bd 785d a93d
00000070: f469 a8bc 097c 80bd e02b 203d 3598 6f3d
00000080: 281a e33d 5688 b53b 741a 513d 12a0 2abc
00000090: 9bb9 af3d d228 a0bd 1c84 e9bd 3c09 593d
000000a0: df2b 8e3c ccdf 243d d50b 323d 90a3 2dbd
000000b0: 5eae aebd 81d7 bcbc 2400 26bb 43fa abbd
000000c0: 9889 a03c bb45 983d 9926 edbc 18af 403d
000000d0: e383 593d 439b 063e 8a6b d23b b543 c6bc
000000e0: dfa2 293c ca0d 64bd b0f1 c23d cddb 63bc
000000f0: e349 d1bd 6c43 70bd d27d 33bd 7e7e 3a3c
00000100: 6ef9 f9bb 00ae 8f3d e982 a13d a83b e8bc
00000110: cc65 81bb 2094 d03d ca8b 07bd bebb 7c3d
00000120: a490 a5bd b382 7cbc bca7 893d 29d4 eabd
00000130: 3c8c 8abd 8ed4 01bc 7257 b4bd 429b c93d
00000140: c457 9dba f0cd 223d ad48 ddbd ec92 afbd
00000150: 3710 18bd 1d06 4ebc 4c58 e8bd 6705 15bd
00000160: 8248 913d 4865 3dbe 652c c6bd 694e c73b
00000170: 9296 0c3c 4c15 92bd bc2b 8b3d f7aa 1cbd
00000180: ec43 6b3d 5f5f c4bd eddb 17bc 330f aebd
00000190: 5936 2cbd 9e33 913d 7970 f33c e70c 01be
000001a0: b59c 283d 0a8c a8bd 4efa a0bd 54ee 623d
000001b0: d3dc af3d 7be1 953d 99bb 3939 bfa4 22bb
000001c0: 39d7 9bbd a23c c9bd 8a53 3ebd 6a9c b4bd
000001d0: b806 dd3d 7dbd 393d 829d 153d f973 633d
000001e0: dd5e 543d f479 b6bc 8420 513d a3ce c2bd
000001f0: cfe1 d53d c283 d33d cb29 a93d c9aa 433d
-0.038495325 0.14124407 -0.072080806 0.097323015 0.045244433 -0.1254651 -0.061479636 0.012879023
0.06458864 -0.096949466 0.06644375 0.04643971 0.07414541 -0.012403044 -0.05185998 -0.09283133
-0.09529282 -0.07623108 -0.06961805 0.009265913 0.09990098 -0.006922639 -0.032118984 -0.035408054
0.121517695 0.059119064 -0.09403087 0.08269781 -0.020558335 -0.06273658 0.039104342 0.058494765
0.11088973 0.005539934 0.05105062 -0.01041414 0.08580323 -0.07820286 -0.11402151 0.052987322
0.017354904 0.04025249 0.043468315 -0.042392313 -0.08529352 -0.023051979 -0.0025329674 -0.08397343
0.01959686 0.07435175 -0.028949069 0.047041982 0.053104293 0.13145165 0.006421511 -0.024202207
0.010353773 -0.055677213 0.095187545 -0.013907385 -0.10219171 -0.05865805 -0.043821163 0.011382697
-0.0076286113 0.0701561 0.07886297 -0.028348759 -0.0039489027 0.101845026 -0.033092298 0.061702482
-0.08084229 -0.0154120205 0.06721446 -0.114662476 -0.06765029 -0.007924212 -0.08805741 0.09844066
-0.0012004306 0.03974718 -0.108048774 -0.08572945 -0.03712484 -0.0125747 -0.11344966 -0.036382105
0.07093908 -0.18495667 -0.09676436 0.0060823453 0.008580821 -0.07132968 0.06795451 -0.038248982
0.057437822 -0.09588503 -0.009268743 -0.08498993 -0.042044017 0.07089923 0.029716717 -0.12602578
0.041165072 -0.08229835 -0.07860242 0.05540307 0.08587041 0.073183976 0.0001771286 -0.0024817435
-0.0760941 -0.09826018 -0.046466388 -0.08818896 0.10792297 0.045346726 0.036527164 0.055530522
0.05184828 -0.022274949 0.0510564 -0.09512069 0.1044346 0.10327865 0.082599245 0.047770295

encoder.bn1.weight f4 [128]
00000000: 4248 733f f56b f63e 3c7f 723f c8cb 283f
00000010: 9b6f 4b3f bb97 7b3f e4c8 133f 34ac 073f
00000020: daba 1e3f 7734 d03f 607f 4e3f 2e7e 243f
00000030: 3634 593f 331c 6a3f a79a a83f 1ad6 923f
00000040: d87a 233f 4bf9 7f3f 3ac5 ca3f 3b76 173f
00000050: ebdd 713f 955b 313f 8edd 9a3f 24bc b73f
00000060: e3ea 2b3f dca9 fe3e dab3 543f ecef 483f
00000070: bbed 5a3f 8639 3b3f b5e7 3a3f 9dcd 493f
00000080: ed51 433f d821 393f be0c 193f 0799 573f
00000090: 04ed 5f3f ee5e 803f 0760 6d3f 36a0 3a3f
000000a0: f370 393f 1845 213f aa17 3f3f 653d 5c3f
000000b0: 60f3 4f3f 4f49 443f d4ef 373f ff1e 5c3f
000000c0: 95ec 9e3f 23ba 213f 68ab 3a3f 8833 703f
000000d0: 1ae3 3f3f 1499 3d3f 7708 433f 73a3 6c3f
000000e0: af27 473f f2ae 553f beb8 7f3f 362c 483f
000000f0: d18a 0f3f 47d7 973f 2552 723f d91c 993f
00000100: df0d 973f cd14 5e3f 13f4 543f 6c16 903f
00000110: 3211 743f e1bc 453f ca10 193f 18c1 3c3f
00000120: 05b9 f33e 992b 463f d636 443f 4309 943f
00000130: 172f 523f 25c0 273f a979 7a3f a272 353f
00000140: 72bd 2e3f c88b 463f a8e6 4e3f 4d10 3b3f
00000150: 9755 2d3f 302b 663f c878 3a3f 57ce f13f
00000160: 3d0c 7a3f b5b2 663f b965 6d3f be6a 423f
00000170: 4e05 2f3f 9cd0 823f e220 843f 6d60 863f
00000180: cad3 413f 0597 4d3f c9c8 6c3f 7d62 4e3f
00000190: e991 453f 345c 4f3f 8e04 553f 81f5 7d3f
000001a0: e44f 4f3f 4752 143f 5647 573f d00a 043f
000001b0: 8ffb 203f 3b78 223f 433d ae3f c2bc 833f
000001c0: dbfe 333f 173c 1d3f b05d 543f c854 823f
000001d0: 9045 423f e3cc 3d3f d04a 1d3f 672c 873f
000001e0: c7cd 4e3f d947 193f 1fa9 203f 68c5 2b3f
000001f0: b2c0 323f 956c 953f bf0f 3d3f 385f 583f
0.9503213 0.4812924 0.94725394 0.65935946 0.7946717 0.982784 0.5772841 0.52997136
0.6200386 1.6266011 0.8066311 0.64255035 0.8484529 0.9144928 1.3172196 1.1471589
0.6385932 0.99989766 1.5841439 0.5916478 0.94479245 0.6928037 1.2098863 1.4354291
0.67155284 0.49738967 0.8308693 0.7849109 0.85519 0.7313465 0.73009807 0.78829366
0.76296884 0.72317266 0.5978507 0.84217876 0.8747103 1.002897 0.9272465 0.7290071
0.7243797 0.62996054 0.74645483 0.8603118 0.81230736 0.7667436 0.71850324 0.85984796
1.2415949 0.6317465 0.72917795 0.9382863 0.74955904 0.74061704 0.7618479 0.92436904
0.7779493 0.8347007 0.9989127 0.7819246 0.5607119 1.1862572 0.9465659 1.1961929
1.1801108 0.8675049 0.8318493 1.1256843 0.9533874 0.7724133 0.59791243 0.7373214
0.47602096 0.77410275 0.76646173 1.1565326 0.82103103 0.65527564 0.9784189 0.7087804
0.6825782 0.7755704 0.80820704 0.7307175 0.67708725 0.8990965 0.7284055 1.8891095
0.97674924 0.90116435 0.9273334 0.75944126 0.6836747 1.0219913 1.0322535 1.0498177
0.7571379 0.8030856 0.92493874 0.8061903 0.77175766 0.81000066 0.83210075 0.99202734
0.8098128 0.57938045 0.84093225 0.51579 0.6288385 0.6346471 1.3612446 1.0291979
0.70310754 0.61419815 0.82955456 1.0182123 0.75887394 0.7414076 0.6144228 1.0560426
0.8078274 0.59875256 0.6275806 0.67098093 0.6982528 1.1673762 0.7385215 0.8452029

encoder.bn1.bias f4 [128]
00000000: 9f3b 273e 92a4 ee3d b652 33be bada 8bbf
00000010: a9bd 863f dc53 acbd 5532 e83e 8bec 3a3e
00000020: f844 8e3e 6443 f73e 0e04 a63e 5b37 c23c
00000030: cb38 d23e c4c1 9c3b 392a c33f c352 babf
00000040: 37de a9bf 3eb4 5fbe ce20 1bbf 57ba 563e
00000050: c72e 0dbf a435 1a3e 9c2c 39bf 3075 d8bf
00000060: d4bd e6bc ee88 2ebf d7ff d8bf 061c 04bd
00000070: 41da 09bc 7063 b33f 4780 8f3c e660 393f
00000080: d087 60be d394 aebe 7903 013e ddd9 2a3f
00000090: 7ab9 a73d 4d24 9dbe f28d 4f3c f2c0 0b3f
000000a0: 37ff 7f3e 0a5d ab3b 7cc8 e8bf b5f2 383f
000000b0: f52a 253f 83d4 55bf e5c7 293f bfef eebf
000000c0: 7387 6ebf 89af febd 5381 443e 044d cbbf
000000d0: 7b06 50bc a399 bc3e 6c0d b13e 93cf 75be
000000e0: 5653 db3d 275e cdbe 5271 a7bd c3b0 993d
000000f0: ab53 e63d d1cf cbbe 573b 89be 505f 57bd
00000100: 13e1 24be b98a 9c3c 763c 103e dca1 25bf
00000110: 5d6c bbbe ce24 c3bf 642d 703e 9805 143f
00000120: fc19 5f3d 7bb5 d3bf 971b a93e c934 bdbf
00000130: 833a e5bf 0b8d 2cbe 3b13 843e 9966 c23e
00000140: 59a9 983e 730e ad3e 6fdf 093f dbec 393f
00000150: b603 abbf af4d 9b3d 167d 303e 7eff 393f
00000160: 39a7 a8bf 2ee2 6ebe 27b1 dfbf aebc b93f
00000170: 5c10 ba3e d6b7 5c3e 18e6 36be 5b48 623c
00000180: d36c c3bf e36a 63bc c149 efbe da4a 013e
00000190: 6e33 b93f 9af2 793e 7a3d cebf 17e7 82be
000001a0: 63f7 ea3c 0bc1 973f e48e c13e 17f0 a8bd
000001b0: 5fa7 903e fc11 f13c d6a4 cabe 57ee 8dbe
000001c0: 50ff df3f 3847 a33e 35cc b93e de0c 99be
000001d0: 0262 c2bf 7f2f c13e 0721 463e d995 63be
000001e0: 734c 3b3d e487 953f 1b94 a83e 03cb eebd
000001f0: f11c b23d 31d5 1cbf 4327 9e3e 4604 3cbe
0.16331337 0.11652483 -0.1751202 -1.0926125 1.052663 -0.084144324 0.453509 0.18254296
0.27786994 0.48293602 0.32424968 0.023708036 0.41058955 0.004783841 1.524726 -1.4556507
-1.327094 -0.218461 -0.6059693 0.2096952 -0.551495 0.15059525 -0.72333694 -1.6910763
-0.028166689 -0.6817769 -1.6953076 -0.032253288 -0.008413852 1.4014721 0.017517222 0.7241348
-0.21926808 -0.3409792 0.12598981 0.66738683 0.08189674 -0.30691758 0.01266812 0.54591286
0.249997 0.005229597 -1.8186183 0.7224534 0.6451867 -0.8352739 0.6632064 -1.8666915
-0.9317543 -0.124358244 0.19189958 -1.5882878 -0.012696858 0.36835966 0.34580553 -0.24004965
0.107092544 -0.40110895 -0.08175911 0.07504418 0.11246427 -0.3980699 -0.26803085 -0.05258113
-0.16101484 0.019109117 0.14085564 -0.647001 -0.36606112 -1.5245607 0.23454815 0.57821035
0.05446814 -1.6539758 0.33028862 -1.4781734 -1.7908481 -0.16850679 0.25795922 0.379689
0.29816702 0.33800086 0.5385656 0.7262704 -1.3360507 0.07583176 0.17235216 0.72655475
-1.3176032 -0.23328468 -1.7475938 1.4510705 0.36340606 0.21554503 -0.17861211 0.013811196
-1.5267586 -0.013880464 -0.46735957 0.1262621 1.446882 0.24408951 -1.6112511 -0.25566933
0.028682416 1.1855787 0.3780433 -0.082489185 0.28252694 0.02942752 -0.39578885 -0.277209
1.749979 0.31890273 0.3628861 -0.2989263 -1.518616 0.3773155 0.19348536 -0.22225131
0.045727205 1.1682096 0.32925496 -0.11659815 0.086969264 -0.61262804 0.3088933 -0.18361005

encoder.bn1.running_mean f4 [128]
00000000: a771 17bd 175d 8c3e 60f9 0fbe dfc1 013e
00000010: 6462 f03c f58e 51be d30e bfbd 5d35 48bd
00000020: d3e5 7a3c 6881 4f3d 2558 6e3d 4234 5a3d
00000030: 2d8b 783d e688 e4bd 493f cf3d dfc2 bfbe
00000040: 7b8e 86bd 06f7 3abe 1ed6 85be 2da9 06bd
00000050: b202 383d c105 aebc d5d0 18be 43f0 99be
00000060: fcdd b73d 6aac 083e 383a b9bd 318b c73c
00000070: 85a8 48bd 84e6 abbd b191 20bd 3c2b ff3d
00000080: 9dd9 e53d 1532 d2bd b01d 18bd a402 66bc
00000090: 61d0 683d 7c67 3ebe b1c8 19be 19d1 803d
000000a0: 4909 88bc d210 033d 185f 303d 76ad 38bd
000000b0: fb0d bfbd cf82 94bc 375e 6a3b 26a2 8abd
000000c0: df74 07be 2fe0 a23d baaf 6ebd 2220 943d
000000d0: 900e 6b3d 669c 083e 0c97 23bc d416 39be
000000e0: 79f7 19bd 6999 04be 050b 083d bb57 b4bc
000000f0: 1419 4fbd 49ca 41be 36ba 5fbe 6101 82bd
00000100: dfb7 83bd 9e43 a7bc 39f3 f53c 0d23 80be
00000110: b3bb fcbc 6e41 f23d 3100 9abd 9618 463d
00000120: 90f0 6d3d 4340 31ba 31a4 cebb 4407 3dbe
00000130: 96a5 8bbd 42bf fcba 266c 07be 9bc7 8d3d
00000140: 8c34 da3b 0841 703d cde5 c8bd 42ce 18bd
00000150: ff51 a33b ee33 04bd 4a7b 26be 2ea6 cb3d
00000160: 9976 5e3d 910f 85be 6ad7 f3bd e40e 95bd
00000170: dffc cabc 6d5b f2bd a242 bf3c f0df 5dbd
00000180: 2018 9a3d 9e8d 53be b1bc dabd 8aae 19be
00000190: 3cbb f7bd 22ce a63c 9061 f7bb e7a3 31be
000001a0: 77ec 26bd 5829 fcbd 0bc5 a4bd c274 003e
000001b0: 3dda 0a3d 9f3e 1e3d 71ad 5abe 47a7 03be
000001c0: 128f 8dbd c0b0 09be 7bd9 92bd 22c2 5fbe
000001d0: 42d8 023e 0ce6 233d 43b1 293d 7cf1 eebc
000001e0: 683e 123d 25ac 41bd 2b07 53bc 2132 aabd
000001f0: 1241 873d 8950 31bd 0b56 cd3d 4dbf cabd
-0.03697362 0.27414772 -0.14059973 0.12671612 0.029343791 -0.2046469 -0.09328999 -0.048879016
0.015313583 0.05066052 0.05818953 0.053272493 0.060679603 -0.11158924 0.101194926 -0.37453362
-0.06570145 -0.18258294 -0.2613992 -0.032876182 0.044924445 -0.021242978 -0.14923413 -0.30066118
0.08977887 0.13347021 -0.090443075 0.024358364 -0.048988838 -0.08393577 -0.039201442 0.12459418
0.11223147 -0.10263459 -0.037137687 -0.0140387155 0.05683935 -0.18594164 -0.15017964 0.06289882
-0.01660599 0.031998463 0.04305944 -0.0450873 -0.093288384 -0.01812878 0.0035761723 -0.067692086
-0.13228177 0.07952916 -0.058273055 0.07232691 0.057386935 0.13340911 -0.009984743 -0.18075114
-0.037589524 -0.12949146 0.033213634 -0.02201449 -0.050561026 -0.18924822 -0.21848378 -0.06347919
-0.06431555 -0.020417985 0.030023204 -0.25026742 -0.03085122 0.11828886 -0.07519568 0.04836329
0.058090746 -0.000676159 -0.0063061942 -0.18459803 -0.068186924 -0.0019283073 -0.13224849 0.06922837
0.006659096 0.05865577 -0.09809456 -0.037306078 0.00498414 -0.032276087 -0.16257969 0.09943806
0.054312322 -0.2598844 -0.11906321 -0.07278231 -0.024778781 -0.11833844 0.023347203 -0.05416864
0.07524133 -0.20659491 -0.10680521 -0.15007988 -0.12096259 0.020361964 -0.007549472 -0.1734768
-0.040752854 -0.12312573 -0.080453955 0.1254454 0.033899534 0.03863394 -0.21355225 -0.1285678
-0.06912054 -0.13446331 -0.07170387 -0.218514 0.12777808 0.04001431 0.041428816 -0.029167883
0.035704046 -0.04728331 -0.012880127 -0.083103426 0.06604208 -0.043289695 0.10026177 -0.09899769

encoder.bn1.running_var f4 [128]
00000000: 9559 853c 76ce d03b ce54 8b3c fd87 bf3b
00000010: c28b 6d3c d35a e23c 1855 903c 5c06 c73c
00000020: e38a 723c efc8 aa3b add7 783c 4dad 843c
00000030: 2bf9 823c 1b80 a33c 78ed a03b ca38 0c3d
00000040: 1501 993b cf8d d53c e0e4 5d3c 5e0c de3c
00000050: d8db 923c e0d2 c83c 1f94 ae3c 388a 473d
00000060: 0214 a33c a7db be3b a7c9 e23b 0f31 663c
00000070: 5943 ad3c 95a5 7f3c accc b33c 28ba 393c
00000080: f104 4b3c 35d2 c13c e1d2 ad3c c961 883c
00000090: d143 803c 3472 c53c dbd3 883c 60cb 7a3c
000000a0: f03d 343d 702b 023d 9dbc aa3b 2083 7f3c
000000b0: 22fc 6e3c f5e9 703c f174 813c 07d8 d33b
000000c0: 2118 cd3c ab00 623c 1729 5e3c f5d9 c53b
000000d0: b830 753c 8457 723c f129 723c 8773 f73c
000000e0: e66e fc3c 7b35 993c 27a4 8e3c 27c5 6d3c
000000f0: a576 773c 90a7 083d f29d 083d f203 fd3c
00000100: 0e00 9a3c c237 bb3c 10ca a63c 46e9 163d
00000110: b6db 7e3c 6831 bf3b 6bb1 8f3c 356b 7e3c
00000120: 3265 b93b f3ef bb3b 312f ea3c 89f8 913c
00000130: 0f4c e53b 4fe5 e03b aef5 a73c 1d2a 8b3c
00000140: 6e7f 7e3c 3e49 753c e596 763c 2e5e 6a3c
00000150: 5969 ae3b 0cdf 8a3c abce 893c ca01 c53b
00000160: fc5d 293c becc de3c 8c9e 073c 265e 723c
00000170: bba5 7c3c 8990 7e3c 81ad b83c 82e6 8b3c
00000180: a004 b33b fe0f da3c 4bbe cb3c 04e5 813c
00000190: d7ae 703c 48da c23c f8b7 1e3c 3804 a13c
000001a0: dc2c aa3c 8a00 673c b80b 5c3c 8aa0 153c
000001b0: b55c 723c b826 023d 281a 463c 2614 d33c
000001c0: b162 5f3c 13ff 6c3c bb52 d13c f506 fd3c
000001d0: 5af2 ab3b 7260 843c 5a23 4b3c e09f 643c
000001e0: fb70 6c3c ed8f 673c c1a4 953c 452f 543c
000001f0: 1318 823c ae6a ed3c 08cd 883c 5e95 d03c
0.016278068 0.0063722683 0.017008211 0.0058450685 0.014498653 0.027631199 0.0176187 0.024295025
0.014803621 0.0052119414 0.01518814 0.016195918 0.015987953 0.019958546 0.004911121 0.034233846
0.0046693184 0.026068596 0.013543338 0.027105507 0.017927095 0.024514616 0.021310864 0.0487158
0.019907001 0.0058245244 0.0069210115 0.014049782 0.021150278 0.015603443 0.021948181 0.011335887
0.012391315 0.023659805 0.021218719 0.01664819 0.015657337 0.024102308 0.016702583 0.015307277
0.04400438 0.031779706 0.0052104727 0.0155952275 0.01458648 0.014704217 0.015802832 0.0064649615
0.02503592 0.013794105 0.013559601 0.0060379454 0.014965229 0.014791373 0.014780507 0.030206455
0.0308146 0.01870226 0.017412258 0.014512337 0.015103971 0.033362925 0.033353753 0.03088567
0.018798854 0.022853736 0.020360023 0.03684356 0.015555313 0.005834747 0.017540654 0.01552849
0.0056578154 0.0057353913 0.028586956 0.017818706 0.0069975923 0.006863273 0.020502891 0.016987855
0.015533311 0.014971076 0.0150506245 0.014304681 0.005322617 0.01695206 0.01682218 0.006012176
0.010337349 0.027197238 0.008277547 0.014792955 0.015420373 0.01553739 0.02254367 0.017077688
0.005463198 0.026618954 0.024871012 0.015856273 0.014690123 0.023785725 0.009687416 0.019655332
0.020773344 0.01409925 0.013430528 0.009132514 0.014792611 0.031775206 0.012091197 0.025766443
0.01363437 0.014465111 0.025552144 0.030887106 0.0052473964 0.01615927 0.012398565 0.013954133
0.0144312335 0.014133436 0.018267037 0.012950723 0.01588062 0.028981533 0.016699329 0.025461849

encoder.dense2.weight f4 [16, 128]
00000000: 1cfc 003d 9c90 32be e4a1 3abe 7705 03bd
00000010: caab 19be 7c4d 943e 64e7 55be d832 823d
00000020: 527a 223e 22b0 01bd ff99 70bd 58a2 823d
00000030: b28e 03be 62cd 123d 82c6 223c 1dae a03d
00000040: c886 54bc e401 cf3e 6719 803e 30af 4f3d
00000050: e9a7 933d 5c78 13be 771d 15be 4874 9b3f
00000060: 9a5e 373e 4fa1 23be 78f0 ca3e e0df 593e
00000070: aa43 0d3e 5271 9e3b b2e0 f03c 1321 bc3d
00000080: 32d8 1abd c1ed 9b3d a6e4 0a3e 161c f43d
00000090: 73b7 e3bd ba0d f83d 5d73 1bbd 7a0a 54bd
000000a0: 7a36 0fbe 8cd8 2d3d 1b22 8abe b75d 4c3d
000000b0: 9f15 bebd 221d 843d 1d74 8c3e 880b 313e
000000c0: 8fc5 07be 03ea fcbd 7fe1 0e3e 84e4 1dbd
000000d0: 8174 233d 3c3e 63be d442 8f3d aa6f 42be
000000e0: 854c ca3d 9c48 143d 0342 533e 9325 28be
000000f0: 3b31 4d3e 173b 513c 4eb2 c5bd 5235 753c
00000100: 96ac ef3d 3521 5c3b 05d2 a9bd 47ff c43d
00000110: 06e0 d8bc 4dbc 38bc 7970 2dbd 654a 5d3d
00000120: b6e3 a93c 47ef fc3c 2a42 fd3c 0b2a 06be
00000130: 090b c0be 5782 10bd cacd 613d bd87 3e3e
00000140: 7f71 853d 5d2c 123d 355c 19be 0629 e43b
00000150: 29af 22be faff e9bd fe61 f7bd 7a56 8ebe
00000160: e5ac 80be 5083 ed3d ea41 c63e 2872 4dbd
00000170: c6c3 193c e0df 7bbe a931 b63d d7e8 553e
00000180: bae0 66be 5bbd 3dbe c847 8d3e 755b f9bb
00000190: 8625 61bc 86b0 073d 6f60 23bd 248b 8fbe
000001a0: 6410 ee3d 6806 13be 0f63 413e 5608 b23d
000001b0: 9c56 3f3e ddc3 c2bd f8e4 6b3c 06ef 1a3e
000001c0: 2121 06bb 73d8 853e c72b c0bd 9994 153d
000001d0: 094f 54be ce4b b8bd 2f71 053e 8b90 5ebe
000001e0: cd74 8fbd 3431 19be 2036 8fbd 6cc3 97be
000001f0: 0f31 f6bc 806e 61be d902 4a3e 3cef 243c
00000200: 046f a33d c91c 32bd ee1d 98bd aa37 873e
00000210: abec 103e 27ea 8fbd 8caa c63d 8100 f8bc
00000220: 7872 08be 3209 983d a076 f0bc 28ca 853d
00000230: 751a 21bd 2dc2 19be 76b3 d33d 577e febd
00000240: aea8 383e f169 9b3c f3b4 13bf 64b8 34be
00000250: 3d7f 963d 8b1f 363d 244a d2bd 06d5 b6bf
00000260: a92a 9c3d 0124 3a3e 75d9 0bbc 980b 423d
00000270: c12b 11bd 0bd2 803e bb01 a5bc 335c e03d
00000280: d533 c7bc da55 a53d 34ba 5bbe 067b 8f3d
00000290: 9856 4fbd fada 9ebd da4f cdbd 16b5 3c3d
000002a0: 0797 17be 4ee8 8bbd df69 013e 6c14 ee3d
000002b0: 82d4 9dbc 87f2 26bd 1514 c53d 194b d23d
000002c0: d4bb 76be bd95 4bbd 0aa7 333d bb96 bb3d
000002d0: d42f 90bd 9799 1abe a9fd 973d e393 1ebe
000002e0: 34b3 a9bd ec46 cc3c 4355 963d c4b9 a8bc
000002f0: bd0e c93c 9606 5fbe e651 d9bc efa0 873d
00000300: c5a3 f7bd 9156 50be d6be 9d3d 2d4f f2bc
00000310: 5695 003d 7442 3c3e c804 90bd 9d4f 453d
00000320: da97 843d a58c 013d 3874 39be 2cee 163e
00000330: f7dc db3d fe89 29be aba2 29bc 1e78 68bd
00000340: ed0b 103e a417 303d 8051 ffbd 64ea 9fbc
00000350: c7f4 763e c115 a93d 5fd3 a1bc 20f7 063f
00000360: 0ff9 7c3d f1a5 26be b7d2 ecbd 2e3f 6f3e
00000370: abee cb3c 07f2 5cbd 9ea4 b7bd 118f ae3c
00000380: a4a8 543e 5b3e 0fbe 56ce 11be 3304 f53c
00000390: cdc7 913e 4013 13be 9420 2a3e 6a8b 88bd
000003a0: 95a5 50be fbee 793e 62bb 403d 4476 e7bc
000003b0: f251 99bd f1c6 a83b 437c ccbd d1d5 0b3c
000003c0: b56c 1e3e 3905 483d 111d ff3d f45a 263d
000003d0: aafb 6f3e 0764 083d e9c8 b1bb 196a bfbd
000003e0: 3144 353c bf40 293e 0491 35bd 0f58 48bd
000003f0: 434a 013d 8c50 a03d 36cf 8f3d dc28 c23d
0.03149043 -0.17437977 -0.18225819 -0.031987634 -0.15006939 0.28965366 -0.2088905 0.06357354
0.15866974 -0.031662114 -0.058740612 0.06378621 -0.12847403 0.0358404 0.009935023 0.078457095
-0.0129715875 0.4043113 0.2501938 0.05070418 0.07209761 -0.14401382 -0.14562021 1.2144861
0.17907181 -0.15979503 0.39636588 0.21276808 0.13795343 0.004835286 0.029404018 0.09185996
-0.037803836 0.07613707 0.13563785 0.119194195 -0.111189745 0.12111993 -0.037951816 -0.051767804
-0.13985625 0.042442843 -0.26979145 0.04989406 -0.09281468 0.06450869 0.27432337 0.17289555
-0.13258956 -0.12349322 0.13953207 -0.038548008 0.03990603 -0.2219171 0.06995168 -0.18987909
0.09877876 0.03620206 0.2063065 -0.16420583 0.20038311 0.012770436 -0.096531495 0.014966326
0.1170284 0.003358913 -0.08292011 0.09619003 -0.02647401 -0.011275363 -0.04234359 0.054026026
0.020738464 0.030875815 0.030915339 -0.13101976 -0.3750842 -0.03528055 0.055127896 0.18606468
0.06515788 0.03568684 -0.1497658 0.006962898 -0.15887131 -0.11425777 -0.120792374 -0.2780035
-0.25131908 0.115973115 0.38722163 -0.050157696 0.009385055 -0.2459712 0.08896191 0.20889603
-0.22546664 -0.18529265 0.27593827 -0.0076097795 -0.013741856 0.03312733 -0.039886888 -0.28035843
0.1162422 -0.14357913 0.18885444 0.08692996 0.18685383 -0.09510014 0.014397852 0.15130243
-0.0020466524 0.261417 -0.0938335 0.036518667 -0.20733275 -0.089988336 0.13031457 -0.21734826
-0.070047 -0.14960176 -0.069927454 -0.29641283 -0.03005269 -0.22014809 0.19727649 0.010066804
0.07980159 -0.043484483 -0.07427584 0.26409656 0.14152782 -0.07027083 0.09700498 -0.030273678
-0.13324916 0.07423629 -0.02935344 0.06532699 -0.039331872 -0.15015478 0.10336964 -0.12426441
0.18033096 0.018971415 -0.5769798 -0.17648464 0.073484875 0.044463675 -0.102680475 -1.428376
0.07625324 0.18177797 -0.0085357325 0.047374338 -0.035442118 0.2516025 -0.020142427 0.109550856
-0.024316708 0.080730155 -0.2145775 0.07005887 -0.05061969 -0.0775661 -0.10024996 0.046071135
-0.14803706 -0.06831418 0.12638043 0.11624989 -0.01926637 -0.040758636 0.09622971 0.1026823
-0.24095088 -0.04970335 0.043860473 0.09159609 -0.070403725 -0.15097652 0.07421429 -0.15486102
-0.082861334 0.024936162 0.07340481 -0.020596392 0.02454316 -0.21779856 -0.02652831 0.066224925
-0.120917834 -0.20345522 0.07702415 -0.02957877 0.031392418 0.18384725 -0.07032162 0.04817163
0.06474276 0.03162827 -0.1811074 0.14739293 0.10735505 -0.16556546 -0.0103537245 -0.056755178
0.1406705 0.042991295 -0.12466717 -0.019520946 0.24116813 0.08256102 -0.01975411 0.5272083
0.06176096 -0.16274239 -0.11563628 0.23363945 0.02489408 -0.053941753 -0.08966945 0.021308454
0.20767456 -0.1398863 -0.14238867 0.029909229 0.28472748 -0.14362812 0.1661399 -0.06667216
-0.20375665 0.2440757 0.047053702 -0.028254636 -0.07486333 0.005150669 -0.099846385 0.0085348645
0.15471156 0.048833106 0.12456716 0.040614083 0.23435846 0.03329852 -0.0054255617 -0.093464084
0.011063621 0.16528605 -0.04432775 -0.048912104 0.031564962 0.07827863 0.07021944 0.094804496

encoder.dense2.bias f4 [16]
00000000: a415 913c 2b39 90bd 71f2 9c3c aeca 4d3c
00000010: 06d3 97bc a2d4 9d3c 0233 3f3d 8826 5a3d
00000020: a71a 7fbc 33ce a73d ff7f 90bd 163d 4a3d
00000030: 50c7 4b3d 219b 233c 4fbe b9ba e1dd 303d
0.017710514 -0.07042154 0.019158574 0.01256053 -0.018533241 0.01926643 0.046679504 0.053259403
-0.015570319 0.08193626 -0.07055663 0.049374662 0.049750626 0.009985716 -0.0014171096 0.04318035

encoder.bn2.weight f4 [16]
00000000: fa43 df3f 944c fc3f 5c81 d53f 6389 e73f
00000010: 9040 0040 83b2 fa3f 8aab 0240 dda2 de3f
00000020: 3c5c e63f 5779 f63f 3ebc ec3f 2b0f f13f
00000030: f199 e43f 6ec3 d73f ce5b e03f d1be e33f
1.744262 1.971087 1.6680102 1.8088802 2.0039406 1.9585727 2.04172 1.7393452
1.7996898 1.925578 1.8494947 1.8832754 1.7859479 1.6856515 1.7528017 1.7792608

encoder.bn2.bias f4 [16]
00000000: 2b2e ef3d 12cf 23bf 6ff0 c3be 1b98 2ebe
00000010: ce88 fa3e 36b1 5ebe c20e 53be 886a 8b3d
00000020: d310 123c 0920 18bf 6d5f 8a3d 8aac 97bd
00000030: fb68 0bbe 0fc2 d9bd 75b4 51be c71e 65bd
0.11678728 -0.6398784 -0.38269374 -0.17050211 0.489325 -0.21747288 -0.20611098 0.068074286
0.008915144 -0.5942388 0.06756482 -0.07405956 -0.13614266 -0.10632717 -0.20478995 -0.055937555

encoder.bn2.running_mean f4 [16]
00000000: 496c 91be a2a0 0a40 1073 903f 4c75 103e
00000010: 25a8 1ac0 7bc6 70bf a0b3 4e3f c237 b4bf
00000020: b242 eabe fd31 993f b7bc 8b3f ff3d c83e
00000030: 50b6 793f 24f4 f73e 33cf 9e3f a81d 26bf
-0.28402928 2.1660542 1.1285114 0.14107245 -2.4165127 -0.9405286 0.80742836 -1.4079516
-0.4575401 1.196838 1.0916966 0.391098 0.9754381 0.48428452 1.2406982 -0.64889

encoder.bn2.running_var f4 [16]
00000000: ddda c83f ec56 a23f 47f6 c33f 4a74 df3f
00000010: 4625 b63f 5d8e 8b3f 2e78 923f e9b0 a93f
00000020: 01ae 973f 4009 b03f a193 a93f ae3c ac3f
00000030: 373a 9c3f fa71 a43f d938 b33f af14 9f3f
1.5691792 1.2682776 1.5309533 1.7457364 1.4230125 1.0902821 1.1442926 1.3257114
1.1849977 1.3752823 1.3248178 1.3456018 1.2205266 1.2847283 1.4001724 1.2428187

decoder.dec_dense1.weight f4 [128, 16]
00000000: 936b 813e cfcb 873d 21d9 efbd 2dd9 923c
00000010: 900c c6bc 40cc 80be 351d c53d 7843 9ebe
00000020: 21f4 12be 460f b2bd 3f52 2a3e 1b0a 0d3e
00000030: fc7d 28be 7773 58be 6a90 26bd 5c0f f93d
00000040: ec9c 88be 72e1 24be 6d32 a13c ab8e edbe
00000050: 3d22 1c3e 44b6 e73d edbc de3d b24f 69be
00000060: 2d06 4bbe b51d 0c3e 6f50 3dbd ce8a cbbe
00000070: cbb7 87be 9200 2bbe ef17 2ebe 85fb 8fbc
00000080: 98e5 803e 5898 d03d e0e7 0bbe 330f cebe
00000090: d5e1 8f3e 7d10 703e 0ace d23d 7597 803e
000000a0: dda5 10bd 3dc5 9a3e ede9 15be a86e 42bd
000000b0: 14c3 83be 2a5b a03c 6fc7 533e 9c2e da3d
000000c0: 8e3a 43be 0178 37be 667c a5bd 7fe5 5c3e
000000d0: d911 47be 2e21 11bd 54fa 593e 2145 133d
000000e0: 16e3 2d3d a76f bbbd 6fd3 f63d c58f 73be
000000f0: b157 e3bb 3925 17bd 91cb 893d 2ad4 2f3c
00000100: 7841 803e 6596 46bd 2d12 c13d 30b5 97bc
00000110: e7c5 773d 79d5 56bd 1811 b3bd 7f9c 353e
00000120: 91a2 4f3e cd93 653d e45d 843e 60f9 d6bc
00000130: 0d7f a93e 8d42 503e cddf fcbd 1fe1 72bd
00000140: 9b70 58bd e5ea 5d3e 6085 7bbc 0168 413e
00000150: d5ae 883e 54d8 f93d 981e a2be 6a03 71be
00000160: f0be 8b3d 0d8e 88be d976 53bd fef9 42be
00000170: a221 8a3d 5fa6 94bd 3869 c73e 4292 46be
00000180: 85fb aebe 965d 82be 2d53 6fbe 4af9 a63e
00000190: 1525 77be 08dc ffbe 38fc ddbc ed45 e9bd
000001a0: 750b 963d b4e5 a0be 7a61 c7bd 941a 3f3e
000001b0: d0af 07be 2e12 b33e 12c7 b2be b33c f0bd
000001c0: 87b5 9bbd cb64 053e 32aa 2bbd 5876 d83d
000001d0: b38d e63d c402 e9bc c5e3 84be b077 c9bd
000001e0: db77 c3bd 72bc 06be 1708 bd3d bd6d c1bd
000001f0: 6e54 c83d 20a8 52be 5230 813e 1d00 5ebe
00000200: 660f 7e3e e1c7 bb3d 53b6 93bd 3669 5d3d
00000210: 1068 203e 54e8 9bbe b5f8 ac3e f2a5 2dbe
00000220: d8be ccbe 6ced 94bc 7796 503e ab93 3e3e
00000230: 75d9 3bbe 885d 2d3d c8fd 5d3e b232 c0be
00000240: dc2c 82bd 8e02 bbbd ebc2 943c 04ab 34bd
00000250: ea8c a13d da49 4a3d 4acf 933c c1c5 8e3c
00000260: ce79 02bd 166c e0bd 02e0 32bd 04c6 833d
00000270: 652a dfbd 634d eeb9 59d7 283e 9d6d c43d
00000280: 5517 343e 108b 663e 2cd5 c83e 3796 903d
00000290: 9313 033e 9597 72be 918b dbbd 644c b1be
000002a0: ea81 7fbc f873 35be 1b46 803d 5435 f63c
000002b0: 454a 0cbe b81f 913e 6e04 4dbe 9b47 acbc
000002c0: 9085 23be a3ef c4bd 82e0 3d3e df5f c93d
000002d0: c0cc 68be 7e2c a7bd a0eb 22be 0e8d aabd
000002e0: 33f6 a8be d8f1 d2bb c1fa 8f3d ba19 8abd
000002f0: c97d 823e c25a 41be 9b07 87bd 5c3f a6bd
00000300: 9087 54be bc88 023d 7e79 7d3e dc9e 963e
00000310: 8622 81bd f1a6 0b3d 7b40 103e 4d16 913c
00000320: 6927 043d cd15 4dbd 6d93 30bd e1a1 6abd
00000330: 32c8 1abe d8c1 de3d 8db8 58bd de28 c1be
00000340: 17bb b23d 5a5f 873d 643b 35be aba7 b3bd
00000350: 6bdb 463c 42be b23b 5afb 0c3b 85ed f73d
00000360: 08a4 c13d c18e d5bd 3883 c9bc 0ff2 343e
00000370: 93ba da3c d8f2 c0bd 9414 62be db87 c1bd
00000380: d1b6 01be c9de 3cbe 46a8 0ebe 36d9 8d3e
00000390: 143b 90be 87f0 8ebc c479 803e c4ee 813e
000003a0: cc0d 8b3e 748f 70be 3cfb 903d 55a0 1ebf
000003b0: d536 1dbe f9e1 aabd 5faf ac3c 6914 3cbc
000003c0: db85 ff3b 92d1 9dbe 1ea3 353e 00c9 0dbe
000003d0: 1ee0 3cbe 31cf 833e 844f fe3c a607 1cbd
000003e0: 284e fdbc b449 e6be 549d 2fbc 2591 913e
000003f0: 81ba 9abe 0c46 953e 3f9f e43d a67a 06bf
0.25277385 0.0663067 -0.11711336 0.017925823 -0.024175912 -0.2515583 0.096247114 -0.3091085
-0.1435094 -0.086943194 0.16632937 0.13773386 -0.16454309 -0.21137796 -0.040665068 0.12161133
-0.26682222 -0.16101626 0.019677365 -0.4639791 0.15247436 0.11314061 0.108758785 -0.22784308
-0.19826575 0.13683207 -0.046219286 -0.39754337 -0.2650741 -0.16699436 -0.17001317 -0.017575989
0.25175166 0.10185307 -0.13662672 -0.4024597 0.28101984 0.2344379 0.10293205 0.25115553
-0.03531443 0.30228606 -0.14640017 -0.04746881 -0.2573477 0.01957472 0.20681547 0.10653421
-0.19065306 -0.17916872 -0.08080368 0.21571921 -0.19440402 -0.035432033 0.21286899 0.0359546
0.042452894 -0.09152155 0.120520465 -0.23785312 -0.006937944 -0.036900733 0.0672828 0.010731736
0.2504995 -0.04848327 0.09427295 -0.018519014 0.06049147 -0.052449677 -0.08743495 0.1773548
0.20276858 0.056049157 0.25852883 -0.026241958 0.33104745 0.20337887 -0.12347374 -0.059296723
-0.052841764 0.21671636 -0.015351623 0.1888733 0.26695886 0.121994644 -0.31663966 -0.23536459
0.06823528 -0.26670876 -0.051627014 -0.19040677 0.06744696 -0.07258295 0.38947463 -0.1939173
-0.3417627 -0.25462025 -0.23371573 0.32612067 -0.2413524 -0.49972558 -0.027097806 -0.113902904
0.07326404 -0.3142525 -0.09735389 0.18662483 -0.13250661 0.34974808 -0.34917504 -0.117303275
-0.07602983 0.1302673 -0.041910358 0.10569447 0.11257496 -0.028443702 -0.25955024 -0.09837282
-0.09544345 -0.13157824 0.09230059 -0.09444759 0.09781729 -0.20571947 0.25232178 -0.2167973
0.24810562 0.09168983 -0.0721251 0.054055415 0.15664697 -0.3045069 0.33783498 -0.16957834
-0.39989352 -0.018179618 0.20369898 0.18611018 -0.18344672 0.042325526 0.21678841 -0.37538677
-0.063562125 -0.09131347 0.01815935 -0.044108406 0.07888205 0.049386837 0.018043179 0.01742828
-0.031854443 -0.10958116 -0.04367066 0.06434253 -0.10896758 -0.00045452555 0.16488399 0.095912196
0.17587025 0.22513986 0.39225137 0.07059901 0.12800436 -0.23690636 -0.107199796 -0.34628594
-0.015594939 -0.1772002 0.062633716 0.030054726 -0.13700207 0.28344512 -0.20021221 -0.021030238
-0.15968919 -0.096160196 0.18542674 0.09832739 -0.22734356 -0.08162783 -0.15910196 -0.08327685
-0.33000335 -0.0064375214 0.070302494 -0.06743188 0.2548659 -0.18882278 -0.065932475 -0.081175536
-0.20754838 0.03186868 0.24753377 0.29418075 -0.06305413 0.034094755 0.14087097 0.01771083
0.032264147 -0.05006962 -0.043109346 -0.057283286 -0.15115431 0.108768165 -0.052910376 -0.37726492
0.08727091 0.06609984 -0.17698437 -0.087722145 0.012137274 0.0054548094 0.0021512122 0.1210585
0.094551146 -0.10427619 -0.024598703 0.17670463 0.026700294 -0.09421319 -0.22078162 -0.094497405
-0.12667395 -0.18444361 -0.13931379 0.2770478 -0.28170073 -0.017448677 0.250929 0.25377476
0.27158964 -0.23492223 0.07079169 -0.619634 -0.15352948 -0.08343882 0.021079717 -0.011479476
0.0077979392 -0.30823952 0.17738006 -0.13846207 -0.18444869 0.25744012 0.031043775 -0.03809323
-0.030921057 -0.44978106 -0.010718662 0.2843105 -0.30220416 0.29155004 0.11163186 -0.52530897

decoder.dec_dense1.bias f4 [128]
00000000: cb7f 893f 4202 543f 609e d03d 3b4c b93f
00000010: 1112 be3f 482a a63e 46c8 c2bc 1fda 8f3f
00000020: 314b 713f f56d ed3f b01a db3e c310 623f
00000030: b473 603f dea2 e23f 10fc a03e cc45 7abf
00000040: aa9e 8b3f 467c 313f 1f82 28bf 032e 05bf
00000050: 1e9d 003f 9932 7a3f f014 863f afea 09bf
00000060: f27b 863f 1636 173f b535 1e3f 7cd6 f03e
00000070: 6c49 8f3f 517f 1e3f dd90 33be 48bb 0c40
00000080: 4063 8d3d 6794 fb3f 6d1c 533f 0ae7 93bf
00000090: e1be 933f 5603 693f 18e4 e13d d877 f83f
000000a0: 038e 333f 0b1b 12be 2f0b 22bf 483a 7e3f
000000b0: 15da 2bbd f28c 603f ad05 823f 6fa9 cf3d
000000c0: be61 af3f 8c4d 7e3f caf4 923f 8b97 09c0
000000d0: 4f51 8a3e e63e a33c e2b7 a6bf 1aa3 893f
000000e0: 6338 f73c 6880 a13f d32d 6d3f 90ba c63f
000000f0: dff2 42be 8f51 c03f ed81 a1bf 274a 0a3f
00000100: c6e4 7a3f 514c a33f 03b2 3ec0 a4f6 5abf
00000110: c9a5 70bf a1b9 933f 8ec2 843f b32d be3f
00000120: cf7b f03e 5e70 8a3f 559c 4a3f c52b 44c0
00000130: ef25 3f3d a30e 883f 5f68 8d3f 7001 523e
00000140: 096e 89be 38f9 953f 9c51 e83f 77d7 0a3f
00000150: 9aa6 57be 7e61 593f 5dfa 793d a4a1 fa3f
00000160: 627a ee3e 1226 783f 448e e13d 5bf1 cc3d
00000170: b550 ce3f 427c 11be 0b50 b53f 071b cdbf
00000180: eee4 2dbf 3412 4c3f bceb a73e 248b b9be
00000190: 107e cb3f 5cdf ba3e 3bd5 4ebe f9b4 38bf
000001a0: ccaf 773f 789d d43e 3e0c b43f ad07 8dbe
000001b0: a746 823e 1a6a 613f 7ed9 85bf b8d4 3b3f
000001c0: 0a9c a3bf 1968 3abd 62af fa3e f6da 9ebe
000001d0: 05d8 853f 54af cfbf 1bfb de3e 800b 95bf
000001e0: 793e 3c3f 8329 423f 71bd bb3f 5b28 473f
000001f0: 8e62 3a3d 7441 ab3f b121 19bf 6dd1 9d3e
1.0742124 0.82815945 0.10186458 1.4476389 1.4849263 0.32454133 -0.023777138 1.123844
0.9425536 1.8549181 0.42793798 0.88306826 0.8767655 1.7705953 0.31442308 -0.9776275
1.0907795 0.6933025 -0.6582355 -0.52023333 0.5023974 0.97733456 1.047514 -0.53873724
1.0506575 0.59066904 0.618007 0.4703864 1.1194282 0.6191302 -0.1753573 2.1989307
0.06903696 1.9654664 0.8246525 -1.1554883 1.1542627 0.91020715 0.110298336 1.9411573
0.7013857 -0.14268129 -0.63298315 0.9930768 -0.041956026 0.87715065 1.0157982 0.10139739
1.3701704 0.9933708 1.1480954 -2.1498744 0.2701516 0.019927453 -1.3024867 1.07529
0.030178254 1.2617311 0.9264805 1.5525684 -0.1903796 1.502489 -1.2617775 0.540194
0.9800533 1.2757665 -2.979615 -0.85532594 -0.9400297 1.1541024 1.0371873 1.4857696
0.46969458 1.0815542 0.79144794 -3.0651715 0.046667036 1.0629467 1.1047477 0.20508361
-0.26841763 1.171668 1.8149905 0.54235023 -0.21059647 0.84914386 0.06102978 1.9580579
0.46577746 0.9693309 0.11013463 0.100069724 1.611838 -0.14207557 1.4165052 -1.6023873
-0.67927444 0.79715276 0.3279704 -0.36238968 1.5897846 0.36498535 -0.20198528 -0.7215114
0.9675262 0.4152639 1.4066236 -0.2754492 0.25444528 0.88052523 -1.0456998 0.7337146
-1.2781994 -0.04550943 0.4896193 -0.3102643 1.0456549 -1.6225381 0.43550953 -1.1644135
0.73532826 0.7584459 1.4667188 0.7779595 0.045504145 1.337935 -0.59817034 0.30823842

decoder.dec_dense2.weight f4 [64, 128]
00000000: 32ca 003e 7ed5 6fbd badd 783d 4ad2 c9bb
00000010: 6802 863e c18d f23d 8689 143e 6399 433e
00000020: af54 7b3d b13e d93d dab8 06bd 0673 3a3d
00000030: ff61 4d3e 926a 8a3e e44d 0b3b 6d6e 1f3d
00000040: d632 01be aaf8 bf3e 9766 a9bd 3619 663f
00000050: a90b d83e 9c60 c9ba 822e 1abe 9d19 af3d
00000060: 9e32 913c 5923 0f3e 7dbe 49be de5f 46be
00000070: ed6f e63b a0e8 dcbd c1be ce3c 90bf 3c3e
00000080: 2896 1a3e bc5a cd3d 10b1 10be c679 ab3e
00000090: 5a79 ea3d 1e48 9f3d ea4f 003e dc61 073e
000000a0: bd48 dcbb 5d80 80bd eaa4 d0bc c310 a23e
000000b0: 1a49 c13b 241d d13d 1637 f43d 620b 43be
000000c0: f85f ddbd eec0 c63d a268 803c 0359 60bd
000000d0: 5892 7b3d 373d 80bc 8036 debd 6296 953e
000000e0: bc2a 523d 45dc 703c cd35 6c3e 237a 463d
000000f0: c848 0e3e afc9 0e3f 70ae fdbc 392e d3bd
00000100: c7dd 703d e82a aebd 1b2d be3f bffb 7c3f
00000110: 3e21 0ebe fbef 6c3d b6dd 11be b88f 883e
00000120: 2474 723e d06e 4dbe 5268 d3bd edfb 16be
00000130: b659 c63d d41f ab3b 31cb a93d 96a5 a0be
00000140: 95bb 8ebd 9255 043e ddd5 7f3e 320f ecbc
00000150: 1c80 32be c7b1 383d 048d 35be f726 703e
00000160: 45c3 c93d 427f 4cbd c100 6dbd 0e2f 203c
00000170: 2e23 193e b6be 933e c512 173e e9e7 943d
00000180: 054e 3fbd e273 ae3d 66ab 663e fc33 0abe
00000190: 424c 46bb 7776 06bd 5fe9 de3d 4232 72be
000001a0: 6c9c b93d c5e0 6c3f 0798 813e 01fe 333c
000001b0: e1a1 e83d 868a 983e de75 1f3e 2340 c0bd
000001c0: 49d2 593d 86a7 33bd c5bc 2b3e 1384 38bd
000001d0: 1ac0 163d 45d7 17bd 398f fcbc 5d06 59be
000001e0: 8835 6c3d a1c6 a13e baed a73c f5fe 0bbe
000001f0: 54eb 243e 0f92 6e3d e774 52be 4876 3dbe
00000200: 74d0 27bd 584f 5d3d 7871 de3c cfcf a9bd
00000210: b90e ab3e 6164 0abd 8064 403d 0228 1e3e
00000220: 578c b4bc 850c 723e 19cb 38be e217 93bd
00000230: d6bf fc3d e511 62be e99d 38be f917 9ebc
00000240: 9a11 2b3e 4026 8c3e 6cb9 443e a121 883e
00000250: 6b71 55bc f51c dcbe 8190 80be fd9f 183e
00000260: a416 213e 92be da3d 4c93 4ebd 029c 97be
00000270: 98f7 963d ba98 a83d f34c e63c 7e7a 043e
00000280: 9cac adbd 56a5 3d3e 8aef aa3e dc21 f83e
00000290: bc09 1cbe 581c ff3e 7297 f9bd 0818 873e
000002a0: a398 4dbd 75e8 6c3e b659 833d 9ecf 9c3d
000002b0: 8bca 89be 773f 48be 77b7 12bd ee2c 88be
000002c0: da5e 93bd b17e 9ebc 5bc0 b3bc 3427 653d
000002d0: 8f09 acbd 66fc 27be cdd7 31bc d699 103e
000002e0: 83c0 173e ccf9 76bb 583e c13c f748 ee39
000002f0: 5759 5fbd 7501 803d f4af 133d b21a 2d3e
00000300: abd6 4bbe 5429 43be 3c0b bc3e b052 093f
00000310: bd97 043e 225e a23d 0e20 b83e e1b6 8e3e
00000320: 33fb e8bc 715c 8e3e fec4 0dbd 30b6 b0be
00000330: c55f 083e a884 b13d 73b2 0f3e 5c8d 873e
00000340: e307 b13c c363 d73d e2ad 5cbe 8db2 a83e
00000350: 2e11 283e b507 84be 9c20 cabe 7012 2c3d
00000360: 0abf 30be 9ff4 e53c 6166 43bb 5ed2 2dbc
00000370: 1bfd cd3d d4b7 2bbe e17d c73e dc36 0fbd
00000380: 597a bfbd ec2c 64be b073 883e 35c3 d5bc
00000390: d5bd 243e 7546 0bbe cc43 e23d a84b a63e
000003a0: 7225 30be 3999 583e b5eb 023e 5d79 903d
000003b0: 291c ab3d 7eb6 e93d d90a a5be 5af5 55bd
000003c0: 8f6c 27bd 75d6 12bc ded4 a2bb 9eb3 373e
000003d0: 3e3e 323d c40f 44bd 8329 963d 9b6d f3bc
000003e0: 5945 47bd 335d 82be 2b0f 37bd 965e f23d
000003f0: c3d1 f23d d42d c23c 6a2b 483e caf3 d3bc
0.12577131 -0.05855321 0.06075833 -0.0061591016 0.2617371 0.11843444 0.14505586 0.19101481
0.061360057 0.106076606 -0.032891132 0.04551985 0.20056914 0.27034432 0.0021256143 0.03892367
-0.12617049 0.37494403 -0.082715206 0.8988222 0.42196396 -0.0015363875 -0.15056804 0.08549807
0.017724331 0.13978328 -0.19701572 -0.19372508 0.0070323856 -0.10786557 0.025237443 0.1843245
0.15096343 0.10027072 -0.14130044 0.33491343 0.11448927 0.07777427 0.12530485 0.13220924
-0.0067225383 -0.06274483 -0.025469262 0.31653413 0.005898607 0.10210636 0.11924569 -0.19047311
-0.1080932 0.09704767 0.015674893 -0.05477239 0.06141886 -0.01565419 -0.10850239 0.29216295
0.051310286 0.014700954 0.23067398 0.048456322 0.13894951 0.55776495 -0.030966967 -0.10311551
0.058805253 -0.085042775 1.4857515 0.98821634 -0.13879868 0.05784605 -0.14244732 0.2667215
0.23677117 -0.20061803 -0.10322632 -0.1474454 0.0968508 0.0052223 0.08290709 -0.31376332
-0.06969372 0.12923267 0.24983926 -0.02881584 -0.17431682 0.045091417 -0.17729574 0.23452364
0.09851698 -0.04992605 -0.057862047 0.009776844 0.14954826 0.28856438 0.14753254 0.07270796
-0.046705265 0.08518197 0.22526321 -0.13496393 -0.0030257856 -0.03282782 0.10884356 -0.23651984
0.09063038 0.9253047 0.253113 0.010985852 0.11359001 0.29793185 0.15572307 -0.09387233
0.05317906 -0.043860935 0.16771229 -0.04504783 0.036804296 -0.03707053 -0.030830013 -0.21193834
0.05766824 0.31596854 0.020499099 -0.13671477 0.16105396 0.05824476 -0.20552407 -0.18502152
-0.04097028 0.054030746 0.027153715 -0.082915895 0.3340967 -0.033787135 0.046970844 0.1544495
-0.022039576 0.23637588 -0.18046226 -0.0718229 0.12341277 -0.22077139 -0.18028988 -0.01929854
0.16705933 0.27372932 0.19211358 0.26588157 -0.013027529 -0.42990842 -0.25110248 0.1490478
0.15731293 0.1068088 -0.050433442 -0.29611212 0.073714435 0.08232255 0.028112864 0.12937352
-0.08480188 0.18520102 0.3338588 0.48463333 -0.15238088 0.49826312 -0.12187089 0.26385522
-0.050194394 0.2313555 0.064135954 0.07656787 -0.2691234 -0.1955546 -0.035819497 -0.2659678
-0.07195826 -0.01934752 -0.021942308 0.05594559 -0.08400261 -0.16404876 -0.010854674 0.14121184
0.14819531 -0.0037685512 0.023589298 0.0004544926 -0.05452856 0.06250278 0.036056474 0.16904715
-0.19906108 -0.19058734 0.3672732 0.53641796 0.12948509 0.07928111 0.35961956 0.278739
-0.028440094 0.27804902 -0.034611695 -0.34513998 0.13317783 0.0866788 0.14032917 0.26475036
0.021610206 0.10517075 -0.21550706 0.32948723 0.16412804 -0.2578713 -0.39478004 0.04200977
-0.17260376 0.028070746 -0.0029815661 -0.0106092375 0.10058042 -0.16769344 0.38963225 -0.034964427
-0.09349508 -0.22282761 0.26650763 -0.026094059 0.1608804 -0.13601096 0.110480875 0.32479596
-0.17201784 0.211522 0.12785228 0.07054398 0.083549805 0.11411761 -0.3223484 -0.05223594
-0.040875014 -0.008962263 -0.0049692234 0.17939612 0.04351639 -0.047866598 0.073321365 -0.02971535
-0.04865012 -0.2546173 -0.0446922 0.11834447 0.11856415 0.023703493 0.19547811 -0.025873084

decoder.dec_dense2.bias f4 [64]
00000000: d27b 733f 50bc ab3d c579 c93e 67a9 383f
00000010: 9547 e73e 5270 513f 9e4a 613f 858c 013e
00000020: 2698 9d3f 81d9 343f 373a 7d3f 28a5 853f
00000030: 5a28 823f f224 933f 82c5 8d3f 6347 873f
00000040: fe02 a53f 44c1 6f3f 8a15 853f 0bcf 8d3f
00000050: e463 843f 68d0 973f 3cb1 933f f805 543f
00000060: 7bbe a63f a9e4 883f 8a50 853f b637 c43f
00000070: 8e1c 8a3f 9806 643f fa70 5e3f 30a0 893f
00000080: 7b9d c83f 3a36 ac3f 4a8a 8d3f 4bfd 913f
00000090: e131 77bb 1b13 c13f 71eb 723f bb67 6b3f
000000a0: 5964 cb3f 0e46 9d3f c391 893f 3153 843f
000000b0: cdde 5ebf 8d10 3dbd a564 95bd 2fb9 48bd
000000c0: 88eb 653f 5317 583f a3ed 203f c18b 023f
000000d0: 85a2 adbf a4b9 9f3c 8618 a23d 1c77 923c
000000e0: 1732 e93f 9962 a93f 8719 8d3f 1c65 6a3f
000000f0: 4c84 a43d 44de 173d 2bd8 b4bd 6e8b 6abd
0.9511081 0.08385527 0.39350715 0.7213349 0.451718 0.8181201 0.8800448 0.1265126
1.2312057 0.70644385 0.98916954 1.0441027 1.0168564 1.149565 1.10759 1.056866
1.2891538 0.93654275 1.0397198 1.107881 1.0342984 1.1860476 1.1538463 0.8282161
1.302688 1.0694782 1.0415204 1.5329502 1.0789964 0.8907256 0.8689114 1.075201
1.5673059 1.3454049 1.1057827 1.1405424 -0.003771894 1.5083956 0.94890505 0.91955155
1.5889999 1.2287004 1.0747608 1.0337888 -0.87058717 -0.046158362 -0.07294587 -0.04900473
0.8981252 0.8441059 0.62862605 0.509945 -1.3565222 0.0194977 0.07914834 0.017879061
1.8218411 1.3233215 1.1023415 0.9156053 0.08033046 0.037077203 -0.08830293 -0.057261877

decoder.convtrans2d.weight f4 [1, 1, 3, 3]
00000000: a009 44bd daf6 30be 1d93 13be b121 773e
00000010: 0bdc d0be 1476 72be f464 6b3d 0fdd 473c
00000020: 28c0 333e
-0.04786074 -0.17281666 -0.14411588 0.24133946 -0.4079288 -0.23677856 0.057469323 0.012198701
0.1755377
