examples/hgcal_autoencoder/fixed_decoder/fixed_decoder2/checkpoint_epoch99_loss=0.004.pth (torch, 277087 bytes, 48 tensors)

encoder.dense1.weight f4 [128, 64]
-0.14856532 -0.14540258 -0.16885434 -0.05600667 0.08624194 -0.03040916 -0.103050664 -0.15668489
-0.009103545 0.030045383 -0.019610256 -0.040032294 0.13453095 -0.061188105 -0.19338305 0.01408196
-0.113791585 -0.015106445 0.11228567 -0.14426434 -0.22824019 -0.2866452 -0.038682293 0.30212995
-0.17287163 -0.21318956 -0.007912276 -0.101829655 -0.24044853 -0.31162357 -0.20855895 -0.1917069
0.035672396 0.043992586 0.12304516 0.07045162 0.0023192887 -0.0020244038 -0.0011690484 -0.0028936658
0.08019252 0.18088168 0.20741029 -0.029055886 0.0010479927 0.0025912812 0.002237904 0.00023323153
0.21094263 0.21162009 0.19645573 0.084172666 0.0037887665 0.0030555017 -0.0012868047 -0.00023456622
0.23154652 0.25539207 0.16016899 0.18229486 0.0026768278 -0.004508508 0.0015425085 0.0050698435
0.046524208 -0.043238476 -0.5627835 -0.09379518 -0.096806005 -0.10748441 -0.026080038 -0.07314418
-0.02031001 0.07904358 -0.033177383 -0.43141943 -0.5063605 0.13946988 0.06604767 -0.48703656
0.11199168 0.17424512 0.19200946 -0.5406637 -0.5684361 -0.09790946 0.08905922 -0.09112191
0.06123061 -0.028089665 0.00040392185 -0.10619121 -0.4971293 -0.57184833 -0.55893344 -0.5797985
0.027825808 0.08755231 -0.11885446 -0.0049220473 -0.0019281034 -0.00085018657 -0.005103134 0.002229937
-0.1182579 0.009300153 0.038680114 -0.1267878 -0.0052140006 0.00079641084 0.0048953537 -0.0038221409
0.016734116 -0.010172979 -0.026159378 -0.020334406 -0.00077947543 0.004707334 -0.00033212017 0.0028639596
0.11828223 0.05786199 -0.00011828159 -0.07473509 0.0034788814 -0.0037817173 -0.0018789591 0.0035918935
-0.12589978 -0.0042727375 0.18430337 0.12549816 0.09638261 -0.21256326 -0.15416813 0.19503327
-0.28678998 -0.24646668 0.103806645 0.100934565 -0.08359044 0.040482588 0.11808099 0.12018211
-0.1817061 -0.22643678 -0.19293061 0.12611215 0.14683805 0.18683492 0.14757513 0.090795636
0.12955776 -0.107682995 -0.2653484 -0.22067007 0.14838065 0.15847087 0.17052639 0.16118991
-0.12786041 0.10096195 -0.17149955 -0.23792028 0.0002500325 0.003386019 -0.0031006346 -0.00024283542
0.18737511 0.213879 0.07062794 -0.18700732 0.003408745 -0.0009795701 -0.004744365 -4.518324e-05
0.22240065 0.16515827 -0.12033314 0.10897028 -0.0032262576 -0.0011642097 0.00211258 0.001432638
-0.16323093 -0.18708788 -0.1414074 0.060368657 0.0047186287 0.0023544412 0.0019915216 -0.0044787074
-0.15560612 -0.477353 -0.10645328 -0.09475175 0.032033052 0.046346813 -0.033079065 -0.004220704
-0.4003409 -0.083077736 -0.12222878 -0.4685189 0.005845294 0.03778544 0.04445221 0.020681271
-0.011134262 -0.111095004 -0.46135882 -0.52151006 0.067354426 -0.01613908 -0.041959405 0.026647096
-0.11395593 -0.44625455 -0.4698414 -0.16773987 0.037444215 0.011179849 0.011838602 -0.05305077
-0.50215775 -0.517555 -0.4301247 -0.14021635 0.002757372 -0.0027139506 0.000210544 0.0010818257
-0.10790714 -0.10491645 0.02161845 -0.10413008 -0.0014577274 -0.0017698655 -0.002616837 -0.0025579932
-0.3889382 -0.020942133 -0.034709413 -0.44905728 0.004512236 0.001894003 0.002918079 0.0023023777
-0.31497106 -0.39478126 -0.33737165 -0.49204752 0.0013090881 -0.004942535 -0.004049167 0.0029705444
00000000: 8221 18be 6ae4 14be 27e8 2cbe 4067 65bd
00000010: 9d9f b03d a11c f9bc 3a0c d3bd 0172 20be
00000020: 0927 15bc bc21 f63c b0a5 a0bc e7f8 23bd
00000030: 7bc2 093e 61a0 7abd 3506 46be 05b8 663c
00000040: 900b e9bd 0681 77bc 08f6 e53d 08ba 13be
00000050: ccb7 69be 29c3 92be 5371 1ebd c7b0 9a3e
00000060: 4305 31be 5d4e 5abe 7ea2 01bc 118c d0bd
00000070: 2438 76be 208d 9fbe 7a90 55be d04e 44be
00000080: 381d 123d 9231 343d 1aff fb3d f048 903d
00000090: 35ff 173b dcab 04bb c13a 99ba a8a3 3dbb
000000a0: fa3b a43d 0c39 393e 5d63 543e 9c06 eebc
000000b0: cd5c 893a 7cd2 293b cca9 123b 9d8f 7439
000000c0: 5801 583e f0b2 583e b12b 493e b862 ac3d
000000d0: f44c 783b d03e 483b 00aa a8ba e4f5 75b9
000000e0: 881a 6d3e c0c2 823e 5703 243e 81ab 3a3e
000000f0: b86d 2f3b 1bbc 93bb ff2d ca3a ee20 a63b
00000100: 2b90 3e3d d41a 31bd 9412 10bf b017 c0bd
00000110: 3a42 c6bd c920 dcbd cea5 d5bc 9ecc 95bd
00000120: 2e61 a6bc 9ae1 a13d 02e5 07bd 02e3 dcbe
00000130: d7a0 01bf 31d1 0e3e 0044 873d db5c f9be
00000140: e55b e53d 506d 323e 219e 443e f068 0abf
00000150: 0785 11bf c184 c8bd ae64 b63d 209e babd
00000160: f3cc 7a3d 4c1c e6bc 79c5 d339 c77a d9bd
00000170: bb87 febe a764 12bf 4316 0fbf ad6d 14bf
00000180: f3f2 e33c a04e b33d f869 f3bd 2049 a1bb
00000190: 6ab8 fcba 0edf 5eba 3138 a7bb 2224 123b
000001a0: 3331 f2bd ab5f 183c 0a6f 1e3d a9d4 01be
000001b0: 35da aabb 3ac6 503a 3469 a03b e27c 7abb
000001c0: fc15 893c 91ac 26bc 314c d6bc 5794 a6bc
000001d0: b655 4cba fb3f 9a3b 6a20 aeb9 45b1 3b3b
000001e0: f43d f23d b200 6d3d f20d f8b8 b60e 99bd
000001f0: f2fd 633b b0d6 77bb 6847 f6ba f965 6b3b
00000200: dfeb 00be 5202 8cbb 06ba 3c3e 9782 003e
00000210: 3f64 c53d 2faa 59be 40de 1dbe cdb6 473e
00000220: 23d6 92be c361 7cbe 9498 d43d c8b6 ce3d
00000230: 7731 abbd 12d1 253d 72d4 f13d 0a22 f63d
00000240: 2a11 3abe 0bdf 67be 9a8f 45be 8b23 013e
00000250: b75c 163e a751 3f3e ef1d 173e 10f3 b93d
00000260: caaa 043e e788 dcbd bfdb 87be 56f7 61be
00000270: 19f1 173e 3046 223e 789e 2e3e f80e 253e
00000280: d7ed 02be 24c5 ce3d 949d 2fbe 60a1 73be
00000290: cb16 8339 f9e7 5d3b 0434 4bbb a3a1 7eb9
000002a0: 43df 3f3e 1903 5b3e 62a5 903d d97e 3fbe
000002b0: 4065 5f3b eb64 80ba 9e76 9bbb 2283 3db8
000002c0: ffbc 633e 401f 293e 3971 f6bd cf2b df3d
000002d0: 9f6f 53bb 6598 98ba 3673 0a3b 5bc7 bb3a
000002e0: 0226 27be f793 3fbe 1acd 10be 2045 773d
000002f0: ba9e 9a3b f84c 1a3b 3084 023b 1fc2 92bb
00000300: 3657 1fbe 9d67 f4be 2d04 dabd 350d c2bd
00000310: 1735 033d 28d6 3d3d ea7d 07bd d54d 8abb
00000320: 7cf9 ccbe a924 aabd 1553 fabd b6e1 efbe
00000330: e189 bf3b e8c4 1a3d 8513 363d c56b a93c
00000340: 7b6c 36bc c785 e3bd 3937 ecbe af81 05bf
00000350: 1ef1 893d 1b36 84bc a0dd 2bbd 034b da3c
00000360: ba61 e9bd 7a7b e4be 0d8f f0be 00c4 2bbe
00000370: 1b5f 193d af2b 373c b2f6 413c c44b 59bd
00000380: 698d 00bf 7c7e 04bf 4e39 dcbe e094 0fbe
00000390: 07b5 343b 89dc 31bb 7ac5 5c39 0ccc 8d3a
000003a0: 6bfe dcbd 70de d6bd 2d19 b13c 2742 d5bd
000003b0: 3711 bfba d5fa e7ba 3d7f 2bbb 01a4 27bb
000003c0: e822 c7be d68e abbc 752b 0ebd d6ea e5be
000003d0: 61db 933b 3240 f83a 3e3d 3f3b 7de3 163b
000003e0: e343 a1be c520 cabe fabb acbe a7ed fbbe
000003f0: b595 ab3a fdf4 a1bb e0ae 84bb 77ad 423b

encoder.dense1.bias f4 [128]
0.03864887 0.036018513 -0.0052568363 0.013565015 -0.09521051 0.02009156 0.035678837 0.07957315
-0.10403619 0.08178722 0.055563238 -0.08104617 -0.113495536 -0.038277443 0.06527831 0.036217656
-0.12108951 0.048231974 0.10112958 -0.11603066 -0.094411835 0.06228241 -0.08857656 -0.07804339
0.015012007 0.05410977 -0.09889479 0.042996235 -0.014843601 0.047158137 -0.12460783 -0.021255545
-0.052203357 -0.04925705 0.098043844 0.021378467 -0.08304782 0.0863167 0.119254336 -0.010064314
0.10685817 -0.042427 0.08585921 -0.032364722 0.012470791 -0.08703809 -0.08126941 -0.026266476
0.045160096 0.083716206 0.03559185 -0.06946664 0.019602515 0.034087446 0.0753378 -0.05329798
-0.051069897 0.041320343 -0.078797996 -0.0037046182 0.032874543 -0.021419208 0.095963016 -0.0452027
0.09991535 0.049866408 -0.1342917 -0.08934179 0.0745537 0.07031665 0.062300276 -0.023791518
-0.118504755 -0.016932612 -0.02747745 -0.11162643 0.07397832 -0.03208532 -0.08546397 -0.025338223
0.05982344 0.041109174 0.036546398 -0.06639566 -0.09891667 0.05552146 0.0020401517 0.011407172
-0.055659927 0.019012243 -0.015361726 -0.021781137 -0.13342799 -0.027590092 -0.013733064 -0.04251852
-0.029765617 0.064335674 0.011025349 0.08552042 -0.03590733 0.026893672 0.08689483 0.07582376
-0.07158471 0.08356926 0.05639434 -0.0051868483 0.11687255 0.06653265 0.015855184 0.10640523
0.07788913 0.00076546153 -0.028956138 0.041162368 0.115950845 0.07645823 0.03421674 -0.077617116
0.041669272 -0.019121151 -0.020487752 -0.001260291 -0.05388378 -0.07917508 -0.11610965 0.068118006
00000000: 474e 1e3d 2688 133d 8a41 acbb cc3f 5e3c
00000010: bafd c2bd 0e97 a43c f923 123d 3ff7 a23d
00000020: ed10 d5bd 0f80 a73d 4796 633d 89fb a5bd
00000030: 5970 e8bd cfc8 1cbd a2b0 853d f758 143d
00000040: c7fd f7bd e48e 453d 061d cf3d 7ca1 edbd
00000050: fe5a c1bd d71b 7f3d a167 b5bd 36d5 9fbd
00000060: ecf4 753c 35a2 5d3d 5a89 cabd d21c 303d
00000070: 9332 73bc e428 413d 6432 ffbd 1c20 aebc
00000080: 30d3 55bd c3c1 49bd 36cb c83d e521 af3c
00000090: fa14 aabd cfc6 b03d 9e3b f43d cbe4 24bc
000000a0: 75d8 da3d efc7 2dbd f4d6 af3d df90 04bd
000000b0: 4a52 4c3c 0741 b2bd 9470 a6bd cb2c d7bc
000000c0: cbf9 383d 6773 ab3d c2c8 113d 8744 8ebd
000000d0: 7495 a03c 479f 0b3d b44a 9a3d fc4e 5abd
000000e0: ab2e 51bd 853f 293d d860 a1bd 2ec9 72bb
000000f0: 75a7 063d 5677 afbc 4288 c43d 7726 39bd
00000100: 6ba0 cc3d b840 4c3d c383 09be d4f8 b6bd
00000110: 9caf 983d 2d02 903d 932e 7f3d 6ee6 c2bc
00000120: 9fb2 f2bd 43b6 8abc 6418 e1bc 669c e4bd
00000130: f281 973d e66b 03bd bc07 afbd 1b92 cfbc
00000140: 6c09 753d 1862 283d adb1 153d 73fa 87bd
00000150: d394 cabd 786a 633d 11b4 053b 26e5 3a3c
00000160: aafb 63bd 90bf 9b3c c0af 7bbc 5b6e b2bc
00000170: 59a1 08be 9e04 e2bc a500 61bc e627 2ebd
00000180: 06d7 f3bc 6cc2 833d aaa3 343c 5425 af3d
00000190: 9113 13bd 1e50 dc3c ebf5 b13d 7d49 9b3d
000001a0: 019b 92bd 5c26 ab3d c0fd 663d 70f6 a9bb
000001b0: e05a ef3d 4542 883d bbe2 813c fcea d93d
000001c0: 5684 9f3d 41a9 483a 6c35 edbc df99 283d
000001d0: a377 ed3d 2296 9c3d da26 0c3d b9f5 9ebd
000001e0: 66ad 2a3d f6a3 9cbc eed5 a7bc 5930 a5ba
000001f0: 3db5 5cbd 8b26 a2bd e5ca edbd 7481 8b3d

encoder.bn1.weight f4 [128]
1.0021706 1.3184845 0.9466294 1.2803177 1.0798775 1.2935427 1.1118466 0.9698093
0.87580204 1.1173959 0.799134 1.0016704 0.9350658 0.8518618 1.5101826 1.3293885
1.5961387 0.66327167 1.2121722 1.0888057 0.9055832 0.92618024 1.0780662 0.6893303
0.85781974 0.90765 0.9830895 1.3763233 2.0044656 2.1978965 1.1215701 1.1509573
0.96842694 1.0806338 1.061588 0.9925058 0.9462146 1.1000583 1.2685044 0.8360436
1.2351905 0.770271 0.6460933 1.1419797 0.8535625 0.9650296 1.0343174 1.0333365
1.378868 1.3389311 0.5762899 1.5207933 0.80588245 1.1274676 0.9454391 1.5648849
0.76775634 1.2078414 0.89860827 0.90052366 1.0036932 0.9512979 0.9283104 0.97889316
1.2755276 1.2758334 1.1853604 0.7857016 0.93243575 0.558293 1.0463499 0.91395444
0.8465105 1.0801901 0.84318966 1.203215 0.8171609 0.98104274 0.6972501 0.81067616
0.97680277 1.061207 0.98734206 0.8513686 1.8592916 0.94263494 0.71545565 0.85839254
0.8150793 1.273299 1.0293243 1.0000942 1.023139 1.3383605 0.7713315 1.304812
0.92270136 1.281594 1.2000513 0.93962044 1.588227 1.365473 1.4824363 1.1410599
1.0504373 0.83653605 0.948246 0.8349136 0.8944673 0.84968024 1.2026559 0.8642797
0.68445385 1.0674981 0.81050956 1.220853 1.1208999 1.0671926 1.2888318 0.7024528
0.9631765 1.106982 1.060514 0.7204908 0.98539084 1.3685364 0.8134618 1.4731945
00000000: 2047 803f 1ac4 a83f 4e56 723f 73e1 a33f
00000010: 6d39 8a3f cf92 a53f fd50 8e3f 6c45 783f
00000020: 9034 603f d406 8f3f 0c94 4c3f bc36 803f
00000030: 7960 6f3f 9d13 5a3f aa4d c13f 6729 aa3f
00000040: 464e cc3f 2ccc 293f 7528 9b3f fc5d 8b3f
00000050: 4dd4 673f 261a 6d3f 13fe 893f f377 303f
00000060: 139a 5b3f c05b 683f c1ab 7b3f 5d2b b03f
00000070: 2a49 0040 56aa 0c40 9c8f 8f3f 9252 933f
00000080: d4ea 773f 3552 8a3f 1ee2 873f dc14 7e3f
00000090: 1f3b 723f b6ce 8c3f 5a5e a23f f406 563f
000000a0: b91a 9e3f 7b30 453f 5f66 253f 642c 923f
000000b0: 1283 5a3f 2e0c 773f 8364 843f 5f44 843f
000000c0: bf7e b03f 1862 ab3f bc87 133f 5ba9 c23f
000000d0: 504e 4e3f dc50 903f 4c08 723f 264e c83f
000000e0: ae8b 443f 8c9a 9a3f 310b 663f b888 663f
000000f0: 0579 803f 4288 733f c0a5 6d3f be98 7a3f
00000100: 7d44 a33f 824e a33f e4b9 973f bd23 493f
00000110: 1cb4 6e3f 4aec 0e3f cbee 853f ebf8 693f
00000120: eab4 583f ab43 8a3f 47db 573f f302 9a3f
00000130: 7531 513f 9e25 7b3f fc7e 323f 7988 4f3f
00000140: bf0f 7a3f a2d5 873f 73c2 7c3f 4bf3 593f
00000150: 44fd ed3f 8650 713f 1a28 373f 9dbf 5b3f
00000160: 09a9 503f 76fb a23f e6c0 833f 1603 803f
00000170: 38f6 823f 664f ab3f fb75 453f 1404 a73f
00000180: 2836 6c3f 460b a43f 489b 993f f78a 703f
00000190: 064b cb3f d2c7 ae3f 79c0 bd3f 400e 923f
000001a0: bb74 863f 3a27 563f 40c0 723f e6bc 553f
000001b0: cffb 643f a584 593f a1f0 993f 6f41 5d3f
000001c0: 5e38 2f3f c7a3 883f 8e7d 4f3f e944 9c3f
000001d0: a679 8f3f c499 883f 71f8 a43f f2d3 333f
000001e0: bc92 763f 96b1 8d3f ecbe 873f 1672 383f
000001f0: 9342 7c3f 332c af3f 083f 503f a391 bc3f

encoder.bn1.bias f4 [128]
0.08179672 -0.10387076 0.36281875 -0.47966686 0.21494098 0.7055922 -0.055830844 0.24435674
0.15349403 0.1829201 0.1388709 -0.3912978 -0.36428836 -0.74882287 -0.13292906 -0.12667142
-0.6983726 0.28226635 0.22813311 -0.4057696 0.27610362 0.32240382 0.29190412 -0.68751276
0.39720857 0.3419518 -0.03968057 -0.46317047 1.2522169 1.5239493 0.06138836 0.53976285
0.16752064 0.098975815 -0.78353804 0.2670998 0.7728176 0.30713746 -0.5599759 0.6741827
-0.582571 -0.03115861 0.23734893 0.5137973 0.36988437 0.0742987 -0.033678174 0.32153714
-0.4019777 0.014067894 -0.08415842 -0.6402703 -1.4542377 0.41923058 -0.5149378 -0.69561
-0.27413073 0.098503165 0.418537 0.06737475 0.09894303 0.2374742 0.36425236 0.2533975
-0.61161876 0.046961013 0.4648944 0.0008690606 0.12665357 0.69439423 -0.14551386 0.7287852
-0.27824062 0.23691402 -1.2986676 -0.19991176 0.6715723 0.31408685 1.0070438 0.48610428
0.11673921 0.104431055 -0.8987013 -0.18056639 1.1969591 0.7224601 -0.42729327 1.1517506
-0.3677237 0.27921668 0.028006015 -0.040398348 0.18435024 0.3473862 -0.7070514 -0.20189607
0.10904255 -0.6090845 0.1839409 -0.42022458 -0.08277171 -0.50874174 -1.4825914 0.09208919
0.64438576 0.32287452 0.93562883 -0.52806026 0.5029076 0.12760763 -0.43949264 0.20960599
0.01893799 -0.02982452 0.3527317 -0.028794298 0.026137609 -0.27224132 -0.6173638 0.42008182
0.06584065 -0.20412946 -0.011743129 -1.2689583 0.9435706 -0.02345629 -0.29850042 0.44005722
00000000: 0a85 a73d 31ba d4bd 61c3 b93e e596 f5be
00000010: 7d19 5c3e b1a1 343f e2ae 64bd a738 7a3e
00000020: 8a2d 1d3e 684f 3b3e 2c34 0e3e 2f58 c8be
00000030: 0184 babe dbb2 3fbf 8e1e 08be 27b6 01be
00000040: 8cc8 32bf 3785 903e ba9b 693e 08c1 cfbe
00000050: 745d 8d3e 1d12 a53e 7574 953e d600 30bf
00000060: ec5e cb3e 4e14 af3e 1888 22bd ae24 edbe
00000070: a548 a03f c510 c33f 5c72 7b3d e62d 0a3f
00000080: 888a 2b3e d5b3 ca3d f395 48bf 4ec1 883e
00000090: 60d7 453f 1f41 9d3e 955a 0fbf 3d97 2c3f
000000a0: 6023 15bf 5740 ffbc 990b 733e 3888 033f
000000b0: 7c61 bd3e eb29 983d 20f2 09bd 84a0 a43e
000000c0: 05d0 cdbe 067d 663c 405b acbd c1e8 23bf
000000d0: 7624 babf 64a5 d63e f7d2 03bf 7f13 32bf
000000e0: dd5a 8cbe 07bc c93d 7b4a d63e c6fb 893d
000000f0: a5a2 ca3d 702c 733e 497f ba3e 51bd 813e
00000100: 0c93 1cbf 315a 403d a406 ee3e abd1 633a
00000110: 79b1 013e d2c3 313f 9601 15be ab91 3a3f
00000120: 8e75 8ebe 9799 723e bd3a a6bf abb5 4cbe
00000130: 2aec 2b3f fecf a03e d0e6 803f a9e2 f83e
00000140: f814 ef3d f3df d53d 4a11 66bf 65e6 38be
00000150: f535 993f 25f3 383f 2fc6 dabe 906c 933f
00000160: 4846 bcbe 7df5 8e3e df6c e53c bd78 25bd
00000170: 4fc6 3c3e 9bdc b13e 5201 35bf d8bd 4ebe
00000180: b351 df3d f6ec 1bbf 015b 3c3e ad27 d7be
00000190: 3784 a9bd e63c 02bf 8ec5 bdbf 4299 bc3d
000001a0: 77f6 243f cf4f a53e 5f85 6f3f f52e 07bf
000001b0: 8dbe 003f 93ab 023e 2e05 e1be f4a2 563e
000001c0: d823 9b3c 8d52 f4bc 4099 b43e 05e2 ebbc
000001d0: 8a1e d63c 3763 8bbe 8e0b 1ebf f714 d73e
000001e0: 76d7 863d 5007 51be 4166 40bc 3a6d a2bf
000001f0: d88d 713f 6827 c0bc 0cd5 98be 2e4f e13e

encoder.bn1.running_mean f4 [128]
0.02660237 -0.113972984 -0.008434526 -0.23354435 -0.0512171 0.0130343875 -0.08156272 0.07678334
-0.090139 0.06935444 -0.0058641583 -0.17319903 0.009641306 -0.045411658 -0.050969385 -0.113509975
-0.3438345 -0.061501 0.03819939 -0.15207043 -0.15676828 0.02328897 -0.05892177 -0.009312311
-0.025645733 0.06542673 -0.111469775 -0.07565995 0.14834438 0.20916282 -0.1402006 -0.017545685
-0.08345392 -0.059714273 0.115036204 -0.05509242 0.008400452 0.024603622 0.011976402 -0.04137908
-0.11120883 -0.024516655 -0.028367639 -0.051993914 -0.052307256 -0.15364984 -0.17428833 -0.08301135
-0.052883506 -3.9133334e-05 -0.06847207 -0.2603229 0.02804867 0.03148268 -0.01477255 -0.3208453
-0.114921354 -0.09061113 -0.0039598355 -0.045278993 -0.11727721 -0.025259688 0.13845113 -0.061617978
-0.10407592 -0.0028734165 -0.1412448 -0.04032903 -0.0039635943 0.09162816 -0.03175109 0.015614221
-0.2265338 -0.075304836 0.019765947 -0.22139543 0.0077252365 -0.01548167 -0.21576227 -0.11924887
-0.010537205 -0.10101591 -0.027997727 -0.067384176 0.072695695 0.061753824 0.101717375 -0.03523979
-0.045765962 -0.04126072 0.0085231885 -0.12640142 -0.22429954 -0.069092825 0.06925235 -0.10990313
-0.06732901 -0.184982 -0.1178245 0.04532199 -0.14697948 -0.05736344 -0.14614508 -0.033117525
-0.003320472 -0.038517807 -0.0082978755 0.011312388 0.08615212 0.013334543 -0.12835148 0.18904108
0.12830944 0.0027203711 -0.11379809 -0.017840063 0.0666187 -0.14059404 -0.12068029 -0.08280606
0.024204174 -0.12969577 -0.016218359 0.0030935751 -0.030177 -0.14145046 -0.008078593 0.043807
00000000: 37ed d93c ab6a e9bd f730 0abc 4026 6fbe
00000010: 06c9 51bd 2f8e 553c 5b0a a7bd 9540 9d3d
00000020: cc9a b8bd b309 8e3d 2028 c0bb 165b 31be
00000030: 91f6 1d3c 9301 3abd 46c5 50bd eb77 e8bd
00000040: 130b b0be 79e8 7bbd f776 1c3d 5ab8 1bbe
00000050: dd87 20be 83c8 be3c f457 71bd aa92 18bc
00000060: 0017 d2bc 73fe 853d 444a e4bd 9bf3 9abd
00000070: 97e7 173e c72e 563e bf90 0fbe f8bb 8fbc
00000080: e4e9 aabd f496 74bd 1a98 eb3d 97a8 61bd
00000090: 0da2 093c 898d c93c ac38 443c 1c7d 29bd
000000a0: 74c1 e3bd 27d7 c8bc 4063 e8bc 92f7 54bd
000000b0: 2240 56bd 6256 1dbe a478 32be db01 aabd
000000c0: 609c 58bd 1923 24b8 163b 8cbd 0b49 85be
000000d0: 53c6 e53c fcf3 003d 9108 72bc d645 a4be
000000e0: e35b ebbd 5492 b9bd 82c1 81bb 7776 39bd
000000f0: 092f f0bd 68ed cebc 22c6 0d3e 2263 7cbd
00000100: c225 d5bd ee4f 3cbb 7aa2 10be 0e30 25bd
00000110: 0ae1 81bb 8ba7 bb3d 6e0d 02bd cad2 7f3c
00000120: 7af8 67be 6c39 9abd 32ec a13c 7cb5 62be
00000130: fb23 fd3b d5a6 7dbc c9f0 5cbe c038 f4bd
00000140: 3ea4 2cbc 6ee1 cebd 7d5b e5bc b700 8abd
00000150: 7be1 943d 94f1 7c3d 3351 d03d 9957 10bd
00000160: 1775 3bbd 0001 29bd d8a4 0b3c 606f 01be
00000170: c7ae 65be 8a80 8dbd 2dd4 8d3d e414 e1bd
00000180: cbe3 89bd ec6b 3dbe f94d f1bd 8da3 393d
00000190: ca81 16be edf5 6abd 0ea7 15be 3ea6 07bd
000001a0: 479c 59bb d9c4 1dbd d0f3 07bc 9857 393c
000001b0: 8670 b03d 2179 5a3c 926e 03be fc93 413e
000001c0: 8d63 033e 4148 323b f90e e9bd 5325 92bc
000001d0: 636f 883d e2f7 0fbe 3a27 f7bd 3996 a9bd
000001e0: d547 c63c f8ce 04be 5ddc 84bc 94bd 4a3b
000001f0: c235 f7bc 64d8 10be 135c 04bc f86e 333d

encoder.bn1.running_var f4 [128]
0.014344893 0.029098889 0.015071689 0.024581114 0.013052136 0.017592926 0.017315844 0.015055237
0.014718966 0.016737131 0.016089005 0.01983241 0.005799232 0.011728977 0.023200793 0.02057139
0.04266674 0.01493254 0.038073655 0.0140383355 0.022022707 0.019230139 0.013704893 0.00685745
0.017592568 0.012762965 0.014704344 0.02627075 0.0046046115 0.0048362105 0.016022114 0.017242238
0.016163407 0.016939498 0.010476191 0.016617239 0.012080083 0.017119972 0.03333536 0.016106116
0.023714527 0.013633387 0.016195089 0.023164935 0.01539122 0.020950962 0.024863409 0.012077435
0.020864792 0.018917298 0.012769312 0.031307943 0.005964971 0.016291702 0.03853402 0.03660823
0.013477994 0.01941373 0.010542245 0.038035337 0.02241098 0.013589144 0.013052544 0.016265582
0.033376515 0.050239876 0.015664669 0.01074662 0.03600634 0.016430598 0.017186258 0.015007618
0.014529357 0.018286677 0.0061235502 0.023808934 0.0177107 0.017673926 0.023481587 0.020472659
0.021564111 0.04485586 0.011921711 0.014646153 0.0045313863 0.018142559 0.0057243914 0.0127334455
0.016272493 0.01864917 0.016869128 0.037305385 0.019195233 0.016568568 0.0059918878 0.016864777
0.023874504 0.04246151 0.029432066 0.013637629 0.05536874 0.048342377 0.06837971 0.027202435
0.0121801905 0.03062152 0.022103297 0.0113078095 0.018894393 0.03990641 0.021332104 0.011394651
0.01505385 0.014739444 0.0154937245 0.021258142 0.019076345 0.030143637 0.072728 0.021316102
0.037829123 0.022404855 0.013269047 0.005481881 0.013024207 0.0710261 0.0067651416 0.018498857
00000000: d806 6b3c cb60 ee3c 3fef 763c 555e c93c
00000010: a0d8 553c 0a1f 903c f5d9 8d3c 3eaa 763c
00000020: d127 713c 4f1c 893c 17cd 833c 9477 a23c
00000030: 7c07 be3b e52a 403c 970f be3c 5585 a83c
00000040: 52c3 2e3d 9da7 743c 1ff3 1b3d 0c01 663c
00000050: f768 b43c 8688 9d3c 7d8a 603c 76b4 e03b
00000060: 4a1e 903c c11b 513c 7dea 703c c235 d73c
00000070: 48e2 963b 1379 9e3b cf40 833c 983f 8d3c
00000080: 1f69 843c b4c4 8a3c 54a4 2b3c e020 883c
00000090: 8aeb 453c 2f3f 8c3c a98a 083d f9f0 833c
000000a0: f844 c23c 925e 5f3c 90ab 843c 64c4 bd3c
000000b0: 752b 7c3c 5aa1 ab3c 59ae cb3c 6fe0 453c
000000c0: a4ec aa3c 73f8 9a3c 6036 513c c23c 003d
000000d0: ce75 c33b 2d76 853c d9d5 1d3d 83f2 153d
000000e0: ced2 5c3c 8b09 9f3c 61b9 2c3c f1ca 1b3d
000000f0: 3b97 b73c 00a5 5e3c 56da 553c 663f 853c
00000100: d0b5 083d 54c8 4d3d 3153 803c 9712 303c
00000110: 627b 133d 7699 863c 32ca 8c3c 83e2 753c
00000120: 8a0c 6e3c f1cd 953c 10a8 c83b f40a c33c
00000130: 0816 913c e9c8 903c 755c c03c 47b6 a73c
00000140: 38a7 b03c c7ba 373d 4853 433c 6bf6 6f3c
00000150: 067c 943b b49f 943c ad93 bb3b f19f 503c
00000160: e44d 853c 25c6 983c 2031 8a3c 88cd 183d
00000170: 523f 9d3c ceba 873c 9957 c43b 0028 8a3c
00000180: 7794 c33c 1fec 2d3d 841b f13c 5d70 5f3c
00000190: 55ca 623d a802 463d a90a 8c3d a4d7 de3c
000001a0: 6c8f 473c fbd9 fa3c f911 b53c 6444 393c
000001b0: 6ac8 9a3c e774 233d aac0 ae3c a1b0 3a3c
000001c0: 6ca4 763c b57d 713c 64d9 7d3c 8e25 ae3c
000001d0: ff45 9c3c caef f63c 6bf2 943d 1b9f ae3c
000001e0: b6f2 1a3d 638a b73c 6b66 593c 5aa1 b33b
000001f0: 7c63 553c 2276 913d 1fae dd3b ea8a 973c

encoder.dense2.weight f4 [16, 128]
0.110653885 0.05886641 -0.26639554 -0.085450366 0.033439826 0.12830788 -0.1377087 0.11618078
-0.074753284 0.09520542 -0.3266192 -0.31089342 0.072071895 -0.16629937 -0.1817283 -0.0016905236
0.068430215 -0.2152018 -0.055059955 -0.20289443 0.056317143 -0.018252967 0.071560234 -0.19969133
-0.19442803 -0.031257007 -0.067555405 0.05371419 0.2892627 0.23635362 -0.12308666 -0.1025309
-0.13776082 -0.11457782 -0.06136796 -0.20907436 0.099301144 -0.025965475 0.19020706 -0.20705214
-0.09984275 -0.025451224 -0.28397033 0.09364119 0.054324057 0.0024968223 -0.009102639 -0.04761689
-0.09134523 -0.12553918 -0.17019631 -0.06430915 -0.1408277 0.05542332 0.1279776 -0.083641954
-0.22626437 -0.07542716 -0.21233548 0.16733353 -0.22731157 -0.107562624 0.05924634 -0.10957109
0.023232397 0.0029726843 0.00033070488 -0.2075483 0.12022311 -0.15642332 -0.12802012 -0.2455171
-0.25940037 -0.099748366 -0.19924824 -0.059647318 -0.0649486 0.21253279 -0.31710988 -0.3062873
-0.011692883 0.16206379 -0.1866983 -0.19901791 0.12089028 -0.08087852 -0.13460816 0.015613183
-0.16265054 0.034244515 -0.096056 0.06775937 -0.16212349 -0.0069208066 -0.16475192 -0.0063068396
-0.08317205 -0.0042874767 -0.14919847 -0.19043612 0.07709513 -0.030233797 0.2926512 -0.04165149
-0.058136232 0.1074893 -0.20684339 -0.33014983 0.22924763 0.10173813 -0.2540425 0.046675846
-0.11375938 -0.2346939 0.19468349 -0.1960542 -0.23749648 0.06416103 0.21159647 -0.096983425
-0.040416054 -0.04577983 -0.010409366 -0.23694138 0.06007622 0.14220057 -0.09427903 -0.018674219
-0.27895164 -0.39995167 0.075219184 -0.0049771704 -0.032111853 -0.111522526 -0.07387355 0.07324186
-0.06092122 0.11397998 -0.0015484064 -0.118668236 0.15809187 -0.18320711 0.11395646 -0.0032387346
-0.12647215 -0.03828794 -0.19500981 0.037841853 -0.12344172 -0.08418694 -0.18199763 0.003391643
0.0065420535 0.14139472 0.022853915 -0.123719566 0.009693396 0.48318475 0.16564175 0.06061632
0.18080597 -0.16233441 0.0010295046 0.07362666 -0.100083016 -0.08679094 -0.015126958 0.06948133
-0.32560408 0.064070426 0.11208469 -0.2753172 -0.10678579 0.03877917 0.04934553 0.21441783
0.052222233 0.036008056 0.06677933 -0.147068 -0.09569474 -0.15974458 0.18746144 -0.33540118
0.069261715 0.12818934 0.21359557 0.23189831 -0.25444937 0.04348824 0.22869222 -0.18518996
-0.39173388 -0.049518343 0.13621652 -0.041105125 -0.2561744 0.11455832 -0.21512054 -0.0019276515
0.1656823 -0.048489884 0.009982367 -0.048173923 0.19934724 0.09498812 0.12265628 0.019479375
-0.03206121 -0.16487382 0.15988754 0.07446538 0.05594095 -0.09191251 0.06563961 0.029259555
-0.045065016 0.10504641 0.15453131 0.17293765 0.085611105 -0.23191327 0.12730339 -0.05180608
-0.040153224 0.030257516 -0.17430072 0.07898263 0.048943352 0.04427712 -0.41033486 -0.020466862
-0.11616812 0.087371804 -0.09770481 0.040913694 -0.07931042 -0.17796992 0.067782454 0.27148113
-0.22649808 0.12774126 0.032208838 -0.21158163 0.118683316 -0.03319983 0.22514471 0.19991972
0.10512784 -0.1695097 -0.1447659 -0.052730717 0.1404488 -0.009933808 0.037331715 0.027300905
00000000: 819e e23d e81d 713d ff64 88be 9a00 afbd
00000010: 33f8 083d 2463 033e 8203 0dbe 30f0 ed3d
00000020: 4018 99bd 0ffb c23d a23a a7be 6c2d 9fbe
00000030: 6e9a 933d 624a 2abe fc16 3abe 8f94 ddba
00000040: 2425 8c3d dc5d 5cbe 8c86 61bd 8fc3 4fbe
00000050: ceac 663d 3f87 95bc 2c8e 923d e27b 4cbe
00000060: 2418 47be 5907 00bd 7d5a 8abd 6903 5c3d
00000070: 3e1a 943e af06 723e dc14 fcbd b8fb d1bd
00000080: 2c11 0dbe c7a7 eabd f85c 7bbd 9717 56be
00000090: 665e cb3d 8cb5 d4bc a4c5 423e 7a05 54be
000000a0: 5b7a ccbd 167f d0bc 8f64 91be f4c6 bf3d
000000b0: e782 5e3d baa1 233b 3c23 15bc ee09 43bd
000000c0: 3513 bbbd 588d 00be f147 2ebe 84b4 83bd
000000d0: 2335 10be 9003 633d 8f0c 033e 794c abbd
000000e0: d9b1 67be 8e79 9abd 796e 59be 7b59 2b3e
000000f0: 5dc4 68be cb49 dcbd 4aac 723d cf66 e0bd
00000100: de51 be3c 5ed1 423b 7562 ad39 8b87 54be
00000110: 8937 f63d 6f2d 20be b517 03be d668 7bbe
00000120: 20d0 84be df48 ccbd bb07 4cbe bf50 74bd
00000130: c603 85bd 32a2 593e 3a5c a2be b0d1 9cbe
00000140: 8293 3fbc 0df4 253e d72d 3fbe 5acb 4bbe
00000150: 5395 f73d a3a3 a5bd b9d6 09be 70ce 7f3c
00000160: dd8d 26be fa43 0c3d 02b9 c4bd 6dc5 8a3d
00000170: b303 26be efc7 e2bb bab4 28be 9ba9 cebb
00000180: 1c56 aabd f67d 8cbb 7cc7 18be b001 43be
00000190: 0de4 9d3d deac f7bc 61d6 953e c19a 2abd
000001a0: 4220 6ebd 5a23 dc3d c1ce 53be 6609 a9be
000001b0: e4bf 6a3e 155c d03d dc11 82be 2c2f 3f3d
000001c0: aefa e8bd 9953 70be 1c5b 473e 6fc2 48be
000001d0: 4732 73be dc66 833d bfac 583e 3f9f c6bd
000001e0: 4e8b 25bd a283 3bbd 0c8c 2abc c3a0 72be
000001f0: 7c12 763d 079d 113e 5d15 c1bd adfa 98bc
00000200: c0d2 8ebe 77c6 ccbe 840c 9a3d 8817 a3bb
00000210: b887 03bd ec65 e4bd 044b 97bd d4ff 953d
00000220: 8788 79bd 566e e93d e6f3 caba 5508 f3bd
00000230: d6e2 213e a59a 3bbe 0162 e93d f340 54bb
00000240: ea81 01be d1d3 1cbd a7b0 47be 0f00 1b3d
00000250: 03cf fcbd 346a acbd 965d 3abe 5446 5e3b
00000260: b95e d63b c7c9 103e 2238 bb3c af60 fdbd
00000270: 0dd1 1e3c fe63 f73e fe9d 293e d248 783d
00000280: 3325 393e fe3a 26be 71f0 863a 93c9 963d
00000290: 53f8 ccbd 73bf b1bd 0fd7 77bc 3a4c 8e3d
000002a0: 94b5 a6be 5b37 833d a88c e53d 60f6 8cbe
000002b0: 82b2 dabd e8d6 1e3d 8a1e 4a3d 5990 5b3e
000002c0: fbe6 553d 2f7d 133d 9ac3 883d fe98 16be
000002d0: 9bfb c3bd 1594 23be e4f5 3f3e b4b9 abbe
000002e0: 16d9 8d3d 1144 033e ccb8 5a3e c076 6d3e
000002f0: 3047 82be ba20 323d 4b2e 6a3e 70a2 3dbe
00000300: 5891 c8be bfd3 4abd 587c 0b3e d95d 28bd
00000310: 4a29 83be 8d9d ea3d 8f48 5cbe 40a9 fcba
00000320: 9fa8 293e 549d 46bd 158d 233c 0552 45bd
00000330: af21 4c3e 2289 c23d 3733 fb3d 3693 9f3c
00000340: 9e52 03bd afd4 28be 8fb9 233e 4e81 983d
00000350: 5622 653d a03c bcbd 0f6e 863d bcb1 ef3c
00000360: 1896 38bd 9222 d73d 753d 1e3e 9116 313e
00000370: e054 af3d ac7a 6dbe d25b 023e 9d32 54bd
00000380: b577 24bd 9cde f73c e37b 32be a5c1 a13d
00000390: d378 483d ed5b 353d 6917 d2be 1faa a7bc
000003a0: 8de9 edbd fdef b23d 7619 c8bd 1e95 273d
000003b0: 806d a2bd bf3d 36be 87d1 8a3d 93ff 8a3e
000003c0: 1def 67be 9bce 023e 6aed 033d dba8 58be
000003d0: 3d10 f33d 8cfc 07bd 568c 663e c1b7 4c3e
000003e0: 444d d73d f393 2dbe 833d 14be 2afc 57bd
000003f0: cfd1 0f3e 69c1 22bc 24e9 183d 26a6 df3c

encoder.dense2.bias f4 [16]
0.035106823 -0.053887676 0.06878667 0.05473747 0.07643031 -0.008770558 0.009132937 0.03818717
0.0075001633 -0.09940353 -0.007155443 -0.056481276 -0.018860025 -0.008038745 -0.033968244 -0.041145496
00000000: 2ccc 0f3d 53b9 5cbd 07e0 8c3d 6634 603d
00000010: 7f87 9c3d 63b2 0fbc 50a2 153c 266a 1c3d
00000020: eec3 f53b 1494 cbbd 3578 eabb e958 67bd
00000030: 5780 9abc f1b4 03bc 4922 0bbd 2e88 28bd

encoder.bn2.weight f4 [16]
2.2230148 2.2764003 2.1029534 2.0826862 2.0809543 2.2389429 2.0069041 2.3440974
2.0781543 2.2879348 2.1593218 2.1756585 2.2629874 2.040517 2.0844743 2.141721
00000000: e045 0e40 8bb0 1140 ca96 0640 bb4a 0540
00000010: 5b2e 0540 d74a 0f40 1e71 0040 b105 1640
00000020: 7b00 0540 866d 1240 5432 0a40 fd3d 0b40
00000030: c9d4 1040 d597 0240 0768 0540 f511 0940

encoder.bn2.bias f4 [16]
0.32885316 -0.53479207 -0.26532033 0.08672285 -0.16806585 -0.013412263 -0.16434005 -0.41312087
-0.33512235 1.0944028 -0.11952449 0.109544724 -0.75987965 0.03100667 -0.091321796 -0.022315435
00000000: 715f a83e 22e8 08bf 11d8 87be c09b b13d
00000010: 7419 2cbe 1cbf 5bbc c248 28be 9484 d3be
00000020: 2895 abbe 6415 8c3f 41c9 f4bd fc58 e03d
00000030: 7987 42bf b301 fe3c ec06 bbbd dcce b6bc

encoder.bn2.running_mean f4 [16]
-1.8445705 0.5693639 0.064245455 -0.83757716 0.3740721 0.2763936 -0.34368938 0.18949834
1.0944514 -2.028804 -0.18534213 0.5217985 0.5400767 0.025523797 0.5056415 1.6644918
00000000: e31a ecbf d5c1 113f 1f93 833d 756b 56bf
00000010: 6186 bf3e 7683 8d3e 0ef8 afbe da0b 423e
00000020: fc16 8c3f edd7 01c0 54ca 3dbe 9694 053f
00000030: 7742 0a3f 4817 d13c b971 013f 110e d53f

encoder.bn2.running_var f4 [16]
2.1107244 4.233516 2.49365 2.013524 2.3582458 2.4571204 2.644081 4.408523
2.6823401 1.2754425 2.2902143 3.901066 3.7038517 2.2014585 2.2698483 3.5366836
00000000: 1c16 0740 f778 8740 f697 1f40 94dd 0040
00000010: 80ed 1640 7641 1d40 a038 2940 9f12 8d40
00000020: 76ab 2b40 b341 a33f df92 1240 11ab 7940
00000030: e80b 6d40 b2e4 0c40 3245 1140 0659 6240

decoder.dec_dense1.weight f4 [128, 16]
0.06396366 -0.28011152 -0.3628412 0.20302528 -0.01907812 -0.22309648 0.046353374 0.11272995
-0.15246236 -0.22453922 0.05217355 0.3487516 -0.15402213 0.15427208 -0.09334626 0.06174482
0.11131619 0.15829894 -0.053600114 -0.23867224 0.39783785 0.02689458 0.12715621 -0.5704208
0.08735917 -0.12343891 0.011404481 -0.16409849 -0.39630833 0.19308527 0.19839023 -0.08225816
-0.736693 -0.3139801 0.15534009 0.10762303 0.07154202 -0.18487181 -0.29800296 -0.12930347
0.039977208 -0.73324484 -0.020399861 0.1703397 0.15092485 -0.09246225 0.5508247 0.2743658
-0.82817733 0.017059578 -0.0774028 -0.06029321 -0.017017577 0.037955664 0.0981706 -0.25252008
0.32939944 -0.4678728 0.00359452 0.12080776 0.060150478 -0.09901912 0.07970655 0.31950167
0.004699914 -0.010719396 0.2916484 0.16943558 -0.21155204 0.15767266 -0.18642272 -0.14302182
-0.38075837 -0.1131542 -0.24880707 0.24925207 -0.24681562 -0.44832486 -0.13094957 0.24064958
0.24404654 -0.1300076 0.13312103 -0.24416678 0.14449464 -0.09431703 -0.110308066 -0.11803732
0.053665157 0.0458714 0.3034815 -0.09148664 -0.043030772 -0.598015 -0.00018301388 -0.12857637
-0.7110623 0.086450964 0.088600546 0.023933023 -0.04917678 0.0038387852 -0.10984292 -0.26474994
0.16112876 -0.48120704 0.18496694 0.17497727 -0.019729454 0.23472893 0.036760867 0.34733787
-0.13186765 -0.21441065 -0.030849507 -0.5608336 0.27367312 -0.6586943 0.14605191 -0.89589524
-0.52249503 -0.43735635 -0.31316578 -0.18409504 -0.53240854 0.22043736 0.2635453 -0.345946
-0.12768301 0.34447485 -0.086369626 -0.24018292 0.12692653 -0.14443567 0.34137532 0.06499833
-0.34886605 0.004251214 -0.049685232 -0.041466746 -0.39924243 -0.07334706 -0.2758917 0.5046904
-0.1475558 0.112753764 -0.14865357 0.20595697 0.14538853 -0.07220967 -0.11814999 -0.18647408
-0.3091483 -0.16861817 0.06100707 0.10000738 0.039071985 -0.345996 -0.085829 0.037994955
0.27474508 -0.037940174 -0.24670294 -0.098839246 0.3064998 -0.0038352066 -0.055265654 0.10849682
0.3866221 0.15596174 -0.41698083 -0.283125 0.06828896 -0.25073823 -0.011325613 0.26035655
-0.39902765 0.9022096 -0.21993823 0.18801801 -0.17499629 -0.009687089 -0.010966205 -0.3722301
0.87420136 0.19226032 0.11161113 0.7604231 -0.17569834 -0.3061176 0.0074351104 -0.12363114
-0.16102442 0.15610185 0.29861838 -0.13293868 0.22075507 0.14329425 -0.06858451 -0.25601187
0.16774277 -0.031326964 0.067122124 -0.34696272 0.0053756363 0.08882793 0.17219865 0.0015404093
0.04017355 -0.011030118 -0.15543503 -0.30341172 -0.12048103 -0.32488605 0.21797976 -0.06555825
-0.09045131 0.019037975 -0.22974819 0.14856595 -0.06759189 -0.11497083 0.24215429 -0.19275068
-0.12351969 -0.020609757 -0.34412512 0.287355 0.08305051 0.016176905 0.15151504 -0.041264776
0.18136914 -0.044172358 -0.33368802 -0.33048016 0.10392902 0.01135052 -0.2228665 0.1256004
-0.4553757 0.08825692 -0.06254295 -0.039670598 0.02073418 0.038803343 -0.02865019 0.023062546
0.19513702 0.048968833 0.023667373 0.12295899 -0.30912352 -0.04085256 0.009668455 -0.037023544
00000000: 61ff 823d c76a 8fbe 52c6 b9be dce5 4f3e
00000010: b849 9cbc 6773 64be 09dd 3d3d f6de e63d
00000020: 181f 1cbe 9ced 65be efb3 553d 928f b23e
00000030: fab7 1dbe 80f9 1d3e 532c bfbd 23e8 7c3d
00000040: bef9 e33d 1e19 223e cb8b 5bbd 7f66 74be
00000050: 67b1 cb3e 0652 dc3c 3d35 023e 1907 12bf
00000060: 5de9 b23d 8acd fcbd dcd9 3a3c 6f09 28be
00000070: ede8 cabe 25b8 453e cf26 4b3e f776 a8bd
00000080: ea97 3cbf 00c2 a0be 7911 1f3e 7769 dc3d
00000090: 9f84 923d 094f 3dbe d893 98be 2168 04be
000000a0: 24bf 233d efb5 3bbf 9c1d a7bc 886d 2e3e
000000b0: 0b8c 1a3e d95c bdbd d902 0d3f ad79 8c3e
000000c0: 6e03 54bf 87c0 8b3c 5c85 9ebd 03f6 76bd
000000d0: 7268 8bbc 6677 1b3d ab0d c93d 504a 81be
000000e0: 0ba7 a83e 068d efbe 0a92 6b3b 0f6a f73d
000000f0: 5960 763d 89ca cabd 303d a33d b995 a33e
00000100: bc01 9a3b 68a0 2fbc f052 953e 8580 2d3e
00000110: 19a1 58be f174 213e 99e5 3ebe 5074 12be
00000120: c3f2 c2be 64bd e7bd 48c7 7ebe ef3b 7f3e
00000130: 3cbd 7cbe d68a e5be a517 06be d86c 763e
00000140: 56e7 793e b620 05be e150 083e db06 7abe
00000150: 67f6 133e 4929 c1bd 32e9 e1bd 8dbd f1bd
00000160: ffcf 5b3d a6e3 3b3d ed61 9b3e 595d bbbd
00000170: 0941 30bd 8317 19bf 6ae7 3fb9 86a9 03be
00000180: 2e08 36bf 340d b13d 3474 b53d 300f c43c
00000190: 976d 49bd 2194 7b3b 53f5 e0bd 4e8d 87be
000001a0: f0fe 243e c560 f6be f967 3d3e 3e2d 333e
000001b0: aa9f a1bc c85c 703e 9092 163d 45d6 b13e
000001c0: 5008 07be 778e 5bbe 1bb8 fcbc ca92 0fbf
000001d0: e21e 8c3e 31a0 28bf a28e 153e 6459 65bf
000001e0: 3cc2 05bf 2ced dfbe 4457 a0be 6983 3cbe
000001f0: ed4b 08bf 55ba 613e 69ef 863e d61f b1be
00000200: 56bf 02be 025f b03e 8fe2 b0bd 83f2 75be
00000210: 07f9 013e f2e6 13be bfc8 ae3e d81d 853d
00000220: 929e b2be c54d 8b3b be82 4bbd 09d9 29bd
00000230: 8169 ccbe fc36 96bd ad41 8dbe 6433 013f
00000240: de18 17be 72eb e63d a438 18be 62e6 523e
00000250: bbe0 143e aae2 93bd 9ff8 f1bd 10f3 3ebe
00000260: b048 9ebe 3eaa 2cbe 8de2 793d abd0 cc3d
00000270: f209 203d 6326 b1be 1dc7 afbd 99a0 1b3d
00000280: 63ab 8c3e 2867 1bbd b29f 7cbe 3b6c cabd
00000290: 8bed 9c3e 1758 7bbb 3d5e 62bd 9533 de3d
000002a0: 55f3 c53e 6fb4 1f3e 837e d5be c3f5 90be
000002b0: 15db 8b3d c360 80be 108f 39bc 744d 853e
000002c0: 5a4d ccbe 35f7 663f 7d37 61be cb87 403e
000002d0: 3a32 33be 99b6 1ebc 99ab 33bc f294 bebe
000002e0: a9cb 5f3f e4df 443e 6094 e43d 17ab 423f
000002f0: 44ea 33be 72bb 9cbe 3aa2 f33b 5332 fdbd
00000300: 96e3 24be 2ad9 1f3e 82e4 983e 1421 08be
00000310: 9e0d 623e babb 123e 0976 8cbd fd13 83be
00000320: c3c4 2b3e b450 00bd 5377 893d 19a5 b1be
00000330: 1b26 b03b 6beb b53d d854 303e 8fe7 c93a
00000340: 058d 243d abb7 34bc 5c2a 1fbe c858 9bbe
00000350: c2be f6bd 7757 a6be 1636 5f3e 6743 86bd
00000360: 893e b9bd 87f5 9b3c 1c43 6bbe ac21 183e
00000370: 9e6d 8abd d475 ebbd 4bf7 773e 6f60 45be
00000380: e4f7 fcbd cbd5 a8bc 2b31 b0be 3220 933e
00000390: 6316 aa3d 6e85 843c c226 1b3e 4105 29bd
000003a0: d5b8 393e 13ee 34bd 28d9 aabe b234 a9be
000003b0: bdd8 d43d 88f7 393c 1e37 64be 649d 003e
000003c0: 0127 e9be 0bc0 b43d 8516 80bd a37d 22bd
000003d0: bada a93c 41f0 1e3d ceb3 eabc aaed bc3c
000003e0: 00d2 473e 8b93 483d 14e2 c13c ecd1 fb3d
000003f0: 7045 9ebe 0455 27bd 7168 1e3c 00a6 17bd

decoder.dec_dense1.bias f4 [128]
1.135548 -0.021500511 -0.9919746 -1.8234934 0.5459036 0.6235935 -2.0955455 -0.55501413
0.68520623 1.038373 0.7616423 -3.1656966 0.8303451 0.0051581725 0.67915034 -1.302915
1.3558527 -1.653223 -0.068873554 -0.8381576 1.565248 0.5550602 1.5949198 1.1360682
0.4395926 1.156909 -0.9261316 1.7372434 -0.40892813 0.34145975 0.23780656 -1.2805225
0.67031866 -0.6873135 1.3016461 1.2199143 -1.2654755 -0.11161276 -0.22023384 1.8545144
1.5663952 1.3169931 -1.278144 0.57325494 1.1855268 -0.46063626 1.3649485 0.16852722
1.0284833 1.4233013 0.47193056 0.79100853 0.6604468 -2.8498175 1.1127267 1.6840112
-0.5625748 -0.65190935 0.19449282 -0.4833397 1.3498427 0.049956545 1.0073304 -0.6917605
-0.23418362 -0.053406697 -0.52514946 1.1572027 1.4692049 0.96833634 0.2100091 0.9774104
-0.72474885 0.42881247 0.15180519 0.060254566 1.7945845 0.8628874 0.94680226 -0.5003105
-0.5921151 1.1302353 0.95338905 -0.60323316 -0.79148346 0.43811664 -0.44006133 1.5007591
1.5368884 0.9750469 0.26463568 0.4573029 1.0926329 1.2398549 -0.10455337 1.2304883
0.053550564 0.37547818 0.046474602 -0.47517893 0.75386035 1.4387646 1.0296748 1.5319023
1.0617195 -1.1381564 -0.42784768 -0.9916505 0.8436704 1.4161503 -0.29333332 1.8026894
1.2527715 -1.2462527 1.0621414 1.6330949 0.27032286 1.4026772 1.5438443 -0.8811371
0.10426215 0.5081319 1.5177431 0.18468101 0.55859596 1.0720087 1.4040796 1.0832492
00000000: a359 913f d721 b0bc 0cf2 7dbf 3b68 e9bf
00000010: 57c0 0b3f d3a3 1f3f 6b1d 06c0 6815 0ebf
00000020: ad69 2f3f 68e9 843f fdfa 423f c69a 4ac0
00000030: 7f91 543f e305 a93b ccdc 2d3f ebc5 a6bf
00000040: 958c ad3f d09c d3bf 940d 8dbd 7f91 56bf
00000050: 0c5a c83f 6d18 0e3f 5526 cc3f af6a 913f
00000060: 4812 e13e 9815 943f f616 6dbf fe5d de3f
00000070: 075f d1be d0d3 ae3e 9083 733e 29e8 a3bf
00000080: 019a 2b3f c7f3 2fbf 579c a63f 2726 9c3f
00000090: 1afb a1bf 3b95 e4bd fb84 61be ba60 ed3f
000000a0: a37f c83f 3b93 a83f 399a a3bf d6c0 123f
000000b0: 58bf 973f 84d8 ebbe a2b6 ae3f 6692 2c3e
000000c0: 57a5 833f bd2e b63f e2a0 f13e 897f 4a3f
000000d0: 0b13 293f 6963 36c0 d46d 8e3f ae8d d73f
000000e0: e704 10bf 88e3 26bf 2029 473e 4d78 f7be
000000f0: a5c7 ac3f 3c9f 4c3d 34f0 803f 3717 31bf
00000100: d5cd 6fbe fbc0 5abd 3270 06bf 381f 943f
00000110: e80e bc3f e4e4 773f a00c 573e 9137 7a3f
00000120: 2489 39bf 4f8d db3e d272 1b3e 7ecd 763d
00000130: f2b4 e53f 30e6 5c3f a261 723f 5914 00bf
00000140: db94 17bf 8dab 903f 4e11 743f 7d6d 1abf
00000150: a99e 4abf d350 e03e b84f e1be e018 c03f
00000160: c2b8 c43f ac9c 793f 547e 873e 9b23 ea3e
00000170: 65db 8b3f 91b3 9e3f 1420 d6bd a480 9d3f
00000180: d657 5b3d ad3e c03e 275c 3e3d a74a f3be
00000190: fefc 403f 7029 b83f 62cc 833f 6015 c43f
000001a0: 6de6 873f 1caf 91bf da0e dbbe cfdc 7dbf
000001b0: c9fa 573f 6a44 b53f c92f 96be 87be e63f
000001c0: d15a a03f 3585 9fbf 40f4 873f 4109 d13f
000001d0: c267 8a3e ed8a b33f b19c c53f 3392 61bf
000001e0: 6587 d53d ef14 023f 6845 c23f 051d 3d3e
000001f0: 2500 0f3f 9537 893f e1b8 b33f e9a7 8a3f

decoder.dec_dense2.weight f4 [64, 128]
-0.04804276 0.021825679 -0.09461702 -0.6774398 0.120948836 -0.016247232 -0.39588693 0.0655263
1.3667562 0.2455147 -0.020037105 0.0196549 0.06806574 0.09646889 0.1961737 1.3056874
0.0491803 5.757934 -0.06635539 0.04892515 0.30401754 0.15895043 -0.01759554 -0.057453353
-0.02003907 0.12526692 0.6668498 0.7440878 0.423005 0.2593007 0.062416214 0.04510495
-0.030527601 0.14926325 -0.06653712 0.4558943 1.091749 0.061014324 -0.14876999 0.014232083
0.19562636 0.24525209 0.004489783 -0.0142438095 0.27688548 3.0995986 0.38397712 0.50125295
-0.0111602945 0.008156172 0.22947443 0.7953859 0.015998702 0.053217858 0.053976446 0.2789548
0.45401362 -0.032086596 -0.06442765 0.08258715 0.14930607 -0.022510102 -0.07401219 -0.62578624
0.032116584 -0.047805466 0.035005853 -0.12095828 0.21937372 -0.0023212482 0.20381187 0.3525276
-0.023237295 0.3756734 0.12370181 -0.07099381 0.34651875 0.06561029 0.14663889 0.14029086
0.46400395 0.10536101 0.03406107 0.21365955 0.81102586 0.20767617 0.012680577 -0.10494633
0.239756 0.14827949 -0.02003643 0.19507684 0.033415068 0.21232639 -0.030115597 0.06825049
-0.08862682 -0.021023186 -0.017471736 0.34337568 -0.00995949 0.53127456 0.10856617 0.11395241
0.09040769 0.05825966 0.08257788 0.025251621 0.3739021 0.11710844 0.08843954 1.1134336
0.41343582 0.5000382 -0.00025760886 0.18963991 0.9631511 0.13266647 0.116484195 0.107784845
0.0075440123 0.14755571 -0.19244371 0.26990488 -0.26510304 -0.05935455 0.7499057 0.0035839665
0.32083836 0.13863838 -0.010941662 -0.61197144 -0.15524782 -0.036949627 0.12517542 0.039044227
0.33925474 0.05455039 -0.15306097 0.055627264 -0.052926943 -0.02335894 -0.09333083 0.3137607
0.020479105 2.1027067 0.18522656 0.14067286 0.022539388 0.031087633 -0.020800542 0.015729452
0.14928423 0.080026396 0.11339448 0.2170238 0.035115402 0.14568567 0.11547429 0.1937885
0.39627513 0.03878005 -0.0311108 0.20324893 0.60518014 0.0069868346 0.11973542 0.02269385
1.1558559 0.1953287 0.092836484 0.1814459 0.07564976 0.78958946 0.12689334 0.12520246
0.03268311 -0.049914118 0.0029348545 0.005616745 0.07926437 0.08194143 0.098482445 0.102180146
0.05996033 0.074678026 0.020016378 0.038215 -0.16115513 -0.09843857 0.0051390645 -0.34865087
0.06349445 0.018747458 -0.013865394 0.2484329 0.13074519 0.20184073 0.06958315 0.7803037
-0.018535024 0.16341995 0.117924206 0.19811398 0.2433338 -0.014715221 -0.080753975 -0.108464316
-0.22077014 -0.005100918 0.05816261 -0.089867055 0.9951728 0.24492918 0.34667826 -0.12689659
0.023251357 -0.015643934 -0.028245522 0.81896216 -0.0843894 0.032757938 0.03624302 0.034231972
-0.12889965 0.23235834 0.13881044 0.25356388 -0.091202974 -0.0022978357 -0.038709175 0.0058488064
0.049245704 0.28561133 -0.124735154 0.054478846 -0.16699843 -0.044165686 -0.043958534 0.3728078
0.15309405 0.5541528 0.024456182 -0.03542724 0.22303161 -0.07681731 0.12433052 0.0388998
0.13212632 0.022590542 0.33766642 0.3350796 -0.12531208 0.0024609521 0.21403103 -0.12339224
00000000: 7cc8 44bd c4cb b23c 91c6 c1bd b26c 2dbf
00000010: 06b4 f73d ea18 85bc b1b1 cabe a732 863d
00000020: def1 ae3f 3568 7b3e db24 a4bc 5003 a13c
00000030: 0d66 8b3d 7b91 c53d c2e1 483e c420 a73f
00000040: 4871 493d ff40 b840 56e5 87bd bd65 483d
00000050: 30a8 9b3e e7c3 223e 8624 90bc 3554 6bbd
00000060: fa28 a4bc f945 003e abb6 2a3f 8a7c 3e3f
00000070: 1d94 d83e 10c3 843e 25a8 7f3d f8bf 383d
00000080: 0515 fabc 77d8 183e 9d44 88bd fa6a e93e
00000090: 6ebe 8b3f 28ea 793d 2957 18be af2d 693c
000000a0: 4752 483e 5d23 7b3e 081f 933b de5e 69bc
000000b0: efc3 8d3e d35f 4640 a698 c43e 1d52 003f
000000c0: abd9 36bc 77a1 053c 58fb 6a3e 699e 4b3f
000000d0: b60f 833c f8fa 593d 6816 5d3d 2ad3 8e3e
000000e0: 7974 e83e 3c6d 03bd a5f2 83bd 7423 a93d
000000f0: b1e3 183e 1b67 b8bc b493 97bd 8733 20bf
00000100: ae8c 033d aacf 43bd 4c62 0f3d fab8 f7bd
00000110: 81a3 603e 1520 18bb 0fb4 503e 7f7e b43e
00000120: 245c bebc 4458 c03e 6057 fd3d 3465 91bd
00000130: e86a b13e b05e 863d 8128 163e 68a8 0f3e
00000140: ed91 ed3e 83c7 d73d 9f83 0b3d 92c9 5a3e
00000150: 649f 4f3f 10a9 543e 32c2 4f3c 1aee d6bd
00000160: 9982 753e 94d6 173e 7023 a4bc 39c2 473e
00000170: 3dde 083d 176c 593e fcb4 f6bc eac6 8b3d
00000180: fa81 b5bd d138 acbc e320 8fbc f0ce af3e
00000190: 212d 23bc 9c01 083f f157 de3d e25f e93d
000001a0: ab27 b93d aea1 6e3d 971e a93d 7ddc ce3c
000001b0: 1970 bf3e 8dd6 ef3d ca1f b53d fe84 8e3f
000001c0: dcad d33e 8102 003f ad0f 87b9 f730 423e
000001d0: 1291 763f b8d9 073e 448f ee3d 4dbe dc3d
000001e0: c333 f73b d818 173e f70f 45be f930 8a3e
000001f0: 96bb 87be c21d 73bd d2f9 3f3f fbe0 6a3b
00000200: ed44 a43e 38f7 0d3e a844 33bc 29aa 1cbf
00000210: 49f9 1ebe 7e58 17bd fc2d 003e d7ec 1f3d
00000220: ccb2 ad3e 3b70 5f3d 04bc 1cbe 6ad9 633d
00000230: ecc9 58bd 3f5b bfbc 3c24 bfbd 3ea5 a03e
00000240: ccc3 a73c bf92 0640 08ac 3d3e 8c0c 103e
00000250: 86a4 b83c 7eab fe3c e665 aabc 0ddb 803c
00000260: f7dd 183e e1e4 a33d 5d3b e83d 7d3b 5e3e
00000270: 2bd5 0f3d a02e 153e c97d ec3d 7e70 463e
00000280: 93e4 ca3e d4d7 1e3d 14dc febc 7d20 503e
00000290: 16ed 1a3f d1f1 e43b d837 f53d 74e8 b93c
000002a0: 16f3 933f 3f04 483e 0e21 be3d f4cc 393e
000002b0: 43ee 9a3d 8922 4a3f 54f0 013e 1335 003e
000002c0: bade 053d bf72 4cbd b056 403b ac0c b83b
000002d0: 5c55 a23d e9d0 a73d 2ab1 c93d d343 d13d
000002e0: f798 753d cbf0 983d 63f9 a33c 5587 1c3d
000002f0: da05 25be 299a c9bd 9965 a83b 5e82 b2be
00000300: 6109 823d 4594 993c ad2b 63bc 3265 7e3e
00000310: 11e2 053e 56af 4e3e 9c81 8e3d fcc1 473f
00000320: c3d6 97bc 8f57 273e 3f82 f13d 64de 4a3e
00000330: 7f2c 793e 1c18 71bc 5762 a5bd 8a22 debd
00000340: 9111 62be 9a25 a7bb eb3b 6e3d 380c b8bd
00000350: a5c3 7e3f b7ce 7a3e d07f b13e 2ef1 01be
00000360: a179 be3c b527 80bc 2763 e7bc 81a7 513f
00000370: 5ad4 acbd 302d 063d 9073 143d d336 0c3d
00000380: 45fe 03be 58ef 6d3e 5324 0e3e 20d3 813e
00000390: a0c8 babd 4997 16bb 838d 1ebd 58a7 bf3b
000003a0: ddb5 493d a63b 923e 2575 ffbd 3625 5f3d
000003b0: a301 2bbe 14e7 34bd dd0d 34bd aae0 be3e
000003c0: b0c4 1c3e f5dc 0d3f 5558 c83c 271c 11bd
000003d0: 6662 643e 6552 9dbd 00a1 fe3d 6655 1f3d
000003e0: 1f4c 073e cd0f b93c 9de2 ac3e 8e8f ab3e
000003f0: cf51 00be ed47 213b f32a 5b3e 12b5 fcbd

decoder.dec_dense2.bias f4 [64]
1.0619831 0.64376444 0.8341076 1.2400293 0.9876707 0.8250006 0.87088907 0.14756799
0.66892606 0.5783995 0.99561965 0.69687223 0.93657583 0.58051366 1.0089718 1.6165577
1.0784072 0.8441745 1.125334 0.6842026 0.48344475 0.7681884 0.86062026 0.01956756
1.2762967 0.80438983 0.5741715 0.8873476 -0.5604399 1.155125 0.30508173 0.18869044
0.8360276 0.65537536 0.5286436 0.6014667 -0.55047065 -0.4683502 -0.3179721 -0.19744414
0.99150074 0.8036145 0.85358655 0.062096458 -0.40980157 -0.015361588 0.060960453 -0.060118347
0.84237856 0.81424224 0.6045954 -0.07877834 -0.06350344 0.011132394 0.00935777 -0.058728218
1.1611875 1.513303 0.17122017 0.19432496 1.067054 -0.083146594 0.0022904705 -0.016721657
00000000: 10ef 873f bfcd 243f 1388 553f 48b9 9e3f
00000010: fdd7 7c3f 3d33 533f 96f2 5e3f 101c 173e
00000020: bd3e 2b3f fd11 143f eee0 7e3f 3866 323f
00000030: 6fc3 6f3f 8b9c 143f fd25 813f 5deb ce3f
00000040: 3f09 8a3f d21b 583f f20a 903f e727 2f3f
00000050: 1286 f73e ffa7 443f 9c51 5c3f 264c a03c
00000060: b15d a33f 7eec 4d3f e7fc 123f 3629 633f
00000070: fd78 0fbf 23db 933f ac33 9c3e 1138 413e
00000080: e805 563f aec6 273f 3055 073f b9f9 193f
00000090: a5eb 0cbf 99cb efbe 3dcd a2be cc2e 4abe
000000a0: fed2 7d3f aeb9 4d3f a684 5a3f db58 7e3d
000000b0: 83d1 d1be 2caf 7bbc abb1 793d a83e 76bd
000000c0: 1fa6 573f 2e72 503f c4c6 1a3f 8a56 a1bd
000000d0: 170e 82bd a564 363c 5551 193c 008d 70bd
000000e0: cba1 943f eab3 c13f 5754 2f3e 1ffd 463e
000000f0: 3a95 883f c348 aabd b81b 163b dbfb 88bc

decoder.convtrans2d.weight f4 [1, 1, 3, 3]
-0.09717323 0.15648706 0.18916973 0.14344873 -0.28680277 -0.2530795 0.19565482 -0.22423236
-0.17166764
00000000: c202 c7bd 253e 203e b6b5 413e 39e4 123e
00000010: d0d7 92be a393 81be bd59 483e 2b9d 65be
00000020: a4c9 2fbe
