examples/hgcal_autoencoder/fixed_decoder/fixed_decoder3/checkpoint_epoch96_loss=0.007.pth (torch, 277087 bytes, 48 tensors)

encoder.dense1.weight f4 [128, 64]
000000 85 e2 80 3e 16 d9 21 3d d6 53 fa 3d 6a 56 58 3e
       0.2517282 0.03951367 0.12223022 0.21126714
000010 94 41 10 3e 43 4d b8 bd 5b 30 08 bd c2 f0 ed 3c
       0.14087516 -0.089991115 -0.03324924 0.029045466
000020 8c b6 3e 3d 5d e8 42 bd 79 bb 51 be 9d e2 85 be
       0.04656081 -0.04758488 -0.20481671 -0.26149455
000030 72 76 24 3e 92 13 62 3a b0 ed 73 be 0a b6 41 3d
       0.16060808 0.0008624132 -0.2382114 0.047292747
000040 5a 53 14 3e 7f 69 fa bc 02 14 09 bd a7 6f 2a 3c
       0.14484921 -0.030567883 -0.033466347 0.010402597
000050 75 30 c1 3c a6 7a 28 3c 94 58 18 3e a2 4a b5 3d
       0.023582676 0.010283148 0.1487754 0.08852126
000060 ee 1f 4b 3e 5d 9f a0 3d 83 59 8b bd 1c 17 d5 bd
       0.19836399 0.07842896 -0.068041824 -0.104047984
000070 81 57 2c be 00 24 38 be f4 21 63 be 26 5d 9a 3e
       -0.16830255 -0.17982483 -0.22180921 0.30149192
000080 1c 70 40 be 0f f8 15 3e 63 98 d3 3c d2 94 a4 be
       -0.18792766 0.14645408 0.0258295 -0.3214479
000090 45 ed b5 ba 57 9b ab bb d6 05 22 bb 05 ca d4 38
       -0.0013879916 -0.005237024 -0.0024722717 0.00010146577
0000a0 44 3a 3e be 86 67 33 be ee 75 46 bd 7a f1 ed be
       -0.18576914 -0.1751996 -0.04845231 -0.46473294
0000b0 78 42 31 3b 98 b2 a6 ba aa 7b 6c bb 1c a7 a6 ba
       0.0027047675 -0.001271802 -0.0036084452 -0.0012714597
0000c0 a9 98 75 3d 69 83 0c 3e d6 04 aa bd 86 f4 9a be
       0.05996004 0.13722004 -0.08301704 -0.30264682
0000d0 de 77 44 ba 22 db 98 3b a8 32 5e 3b 88 7e ac 3a
       -0.0007494668 0.0046647945 0.0033904705 0.0013160268
0000e0 29 f5 6e be 80 24 77 3d 2a 98 8a 3e 6b 0a 6b be
       -0.23335709 0.060337543 0.27069217 -0.22953193
0000f0 ce 45 75 3b 98 65 c5 39 f4 9e 7f bb 6b 73 19 bb
       0.003742564 0.0003765046 -0.0039004656 -0.0023414742
000100 af 35 2e be 94 4e 3e be f0 fa 2f 3e 4c 57 1e 3e
       -0.17012666 -0.18584663 0.17185569 0.15462989
000110 b2 ef 19 3e f4 df ad 3d 51 39 1e 3e 3a ef d6 bd
       0.15032843 0.08489981 0.15451552 -0.104948476
000120 98 99 4b 3e de 0e fc 3d c9 4f 74 3e dd 57 e7 3d
       0.1988281 0.12307523 0.2385856 0.112960555
000130 8b d7 ca bd 54 49 9b 3d 94 3a 2e 3e 66 7a 0e 3e
       -0.09904393 0.075823456 0.17014533 0.13913879
000140 fc 9d 15 3e 96 e1 4f be 08 c7 71 3c 59 78 14 3e
       0.14611048 -0.20300898 0.014756925 0.14499034
000150 c1 3e c0 3d b0 2c 08 3e 67 11 38 3e f0 41 f3 3d
       0.09386969 0.13298297 0.17975388 0.11877811
000160 8c 93 49 be d2 d9 e8 bd 07 b1 e5 bd 58 e8 27 be
       -0.19685191 -0.11369671 -0.11215406 -0.16397226
000170 26 7a 1d 3e 6e 63 2e 3e ec b0 2b 3e 53 cc 12 3e
       0.15378627 0.17030117 0.16766709 0.14335756
000180 4f 52 8e be ab 97 67 be f6 c9 4b be fb a6 44 3d
       -0.2779717 -0.2261645 -0.1990126 0.048010807
000190 e3 6d 6b 3a b8 13 10 3b d4 b9 12 3a 35 ee f1 ba
       0.0008980913 0.002198441 0.00055971486 -0.0018457832
0001a0 c2 08 2c be a1 68 55 be d2 06 1a be e2 70 f7 bd
       -0.16800216 -0.20840694 -0.15041664 -0.120820776
0001b0 51 1c 4e 3b f6 a7 71 bb 0e 3c 16 3b 34 6e 33 3b
       0.0031449983 -0.0036873794 0.002292398 0.0027378919
0001c0 db 82 72 be 4d d8 1d be 80 41 f3 bd 85 d6 6f 3e
       -0.2368273 -0.15414543 -0.118777275 0.23421676
0001d0 32 46 91 3b 31 87 98 3b 4d 33 41 ba a2 3b a2 3b
       0.0044334168 0.004654788 -0.000737001 0.0049509564
0001e0 8d d1 30 3e 17 90 12 3e 0a 61 f4 bd a3 d8 1d 3e
       0.17267437 0.14312778 -0.11932571 0.15414672
0001f0 0e 86 ac bb 80 ad 1e bb 4e 68 bb 3a d3 3d f8 b8
       -0.005265004 -0.00242123 0.0014298053 -0.00011837077
000200 4e 8d 0c 3e e9 4b aa bc af 39 e6 3c 9f 97 5f 3c
       0.13725778 -0.02078815 0.028103678 0.013646989
000210 c1 d0 21 3d df f5 ea bd 34 d6 c9 3d e5 f3 7b bd
       0.039505724 -0.114726774 0.09855309 -0.061511893
000220 87 b5 81 bd b1 55 19 3e cf cc 9c 3e ec 8e 50 bd
       -0.06333452 0.14974095 0.30625007 -0.05091755
000230 77 55 4e 3d 26 c5 93 3d 24 e0 06 3d a6 4f 2e bd
       0.050374474 0.072153375 0.0329286 -0.042556427
000240 de 88 fa 3d 88 30 06 3d 59 ae a0 3e d6 3f af bd
       0.122331366 0.032761127 0.31383017 -0.085570976
000250 b4 7d 01 be 4f ef d0 bc bd d5 6c 3e 3c 43 67 bc
       -0.12645608 -0.025504736 0.2312841 -0.014115151
000260 79 eb 5d bd 4d 14 c9 bd 0c 11 cc 3d 1b 6f 33 3d
       -0.054179642 -0.09818325 0.09964189 0.04380713
000270 49 a1 69 be e9 23 31 be 8d c8 9e bb 7c ea 35 bd
       -0.22815432 -0.17298855 -0.004845685 -0.044413075
000280 46 25 c1 be 77 b5 d0 be 0c 25 73 bd f8 ae c5 be
       -0.3772375 -0.40763447 -0.059361503 -0.38610053
000290 b8 1d 91 bb af 63 a7 bb 51 b3 24 3b 9e 90 8a ba
       -0.0044285916 -0.0051083188 0.0025131295 -0.0010571664
0002a0 7b b4 6d bd 78 a7 b7 be 95 17 bd be c5 29 04 bf
       -0.058033448 -0.35869956 -0.36932054 -0.51626235
0002b0 b5 c3 9f bb fa 22 ff 3a ff 41 18 3a c0 c1 1f 3b
       -0.004875625 0.001946538 0.0005808174 0.0024376959
0002c0 c4 8c b2 3d dd a5 c5 bc 0e 88 e6 be 20 95 b5 be
       0.08718255 -0.024126941 -0.45025676 -0.35465336
0002d0 fa 8c 97 3b d8 2c 32 3a 28 ba 98 3b 05 72 9d 3b
       0.00462496 0.00067968434 0.0046608634 0.004804852
0002e0 19 ba 1c 3d e2 98 03 3d d3 ea b0 bc 84 c7 d3 be
       0.038263414 0.032128222 -0.021596348 -0.41363156
0002f0 b4 0c 9e bb d6 46 0b 38 0f 3f a5 3b 05 28 74 bb
       -0.0048232917 3.3206154e-05 0.0050429176 -0.0037255299
000300 06 7a 0b bf 3f 8d 1f bb 8b 80 44 be d7 52 ed be
       -0.5448307 -0.0024345664 -0.1918966 -0.46352264
000310 52 8a 7a be 30 16 17 3c 44 be dd be 8a dc 44 3d
       -0.24466828 0.0092215985 -0.43309224 0.048061885
000320 23 3e 35 be e4 f9 77 3c 78 0a 98 3c fa 44 db ba
       -0.17699485 0.015135262 0.01855968 -0.0016728931
000330 49 36 62 bd 56 16 7d bd d4 6b 91 bd 65 70 33 3d
       -0.05522755 -0.06178888 -0.07100645 0.04380836
000340 6b d8 1f bf 17 4d 9f 3d 75 e2 02 3e 1e 16 1e 3b
       -0.624396 0.077783756 0.12781699 0.002412207
000350 be 82 a4 3b bb a3 3d bd 7d 5d 07 3e 75 e6 2c 3d
       0.0050204685 -0.046298724 0.13219257 0.04221197
000360 47 6f 57 bf 9a 06 ba 3d a0 b5 f5 3d 63 a8 19 3e
       -0.8415417 0.090832904 0.11997533 0.1500564
000370 4b de 08 3e 68 43 29 3d f2 97 12 bf 22 22 4f bd
       0.13366048 0.04132405 -0.572631 -0.05056966
000380 d3 be 3f 3e 44 c2 f5 3d 78 4d 26 3e f8 df ad 3d
       0.18725137 0.11999944 0.1624049 0.08489984
000390 69 9f 70 3b 5e 1c 95 bb b6 02 03 ba a0 bd 82 3b
       0.003671611 -0.004550501 -0.00049976574 0.00398989
0003a0 e8 1c 44 3d a0 c3 46 3e e2 58 04 3e 81 fb 45 3e
       0.04787913 0.19410563 0.12924531 0.19334222
0003b0 31 43 a7 bb 8e ea 82 3a 8a e0 46 3a 55 ad 6e 3b
       -0.0051044454 0.0009988116 0.00075865595 0.0036419232
0003c0 95 11 ad 3c 25 09 8b 3e 98 c1 5c 3e 8d 53 38 3e
       0.021126548 0.27155414 0.21558225 0.18000622
0003d0 8c af 01 3b e8 d7 5d 3b 74 f7 a3 3a c6 73 5f 3b
       0.0019788472 0.0033850614 0.001250966 0.0034096106
0003e0 46 c3 cd 3d 79 05 0e 3e 89 58 1a 3d fe 63 bd 3d
       0.10047011 0.13869275 0.03768209 0.092475876
0003f0 7e cb 72 3b 70 e8 95 bb 0d 4e 95 b8 36 5f 96 bb
       0.003704756 -0.004574828 -7.119412e-05 -0.0045889867

encoder.dense1.bias f4 [128]
000000 f0 5e b7 bd 63 40 4c 3c 63 a8 b8 bd 82 27 bb bd
       -0.08953655 0.012466523 -0.09016492 -0.09138395
000010 3a e8 7d bd ff bc 7e bd c9 d7 de 3d e7 e6 e0 3d
       -0.061989047 -0.06219196 0.108810015 0.10981541
000020 49 f6 16 be c4 cc 5a bc 0a 92 d3 3d 25 1f 9f 3d
       -0.14742388 -0.013354484 0.10330589 0.07769612
000030 59 fe cf 3d ba 76 97 bd f2 db 9b 3d 23 d6 7a bc
       0.10155935 -0.07395692 0.076103106 -0.015309843
000040 76 a9 bb bd 27 52 a3 3d 6e 28 e3 3c 47 08 e6 bb
       -0.091631815 0.07974654 0.02772924 -0.0070200297
000050 27 27 c5 3d 17 55 13 3d 9e 4b 88 3d 01 e2 da 3c
       0.09626608 0.03596982 0.06655048 0.026719095
000060 be 02 27 3d 5b 37 0b bd 2e 2a 06 3d ad 9e 7c bd
       0.0407741 -0.033988338 0.03275507 -0.061674763
000070 cc 86 c6 3c a9 01 eb bd d9 7b 4f 3d 1f 36 e1 bd
       0.024234198 -0.11474926 0.05065522 -0.10996651
000080 87 17 68 3d 3a bf 82 3b 0c bc 0e 3a ea d4 e0 bd
       0.056663062 0.003990081 0.0005444891 -0.1097811
000090 ef b8 8a bd 5b e2 8a 3d 9e e0 b0 3d a7 86 a5 bd
       -0.067735545 0.06781455 0.08636592 -0.080823235
0000a0 dd 71 30 bd ad cf e8 3d e6 4e a6 bb 89 1e 1e 3c
       -0.04307734 0.11367736 -0.0050753234 0.009650835
0000b0 6f 46 a2 bd 5e f8 8c 3d 4c f2 2b bd 1f 62 df 3d
       -0.079235904 0.0688331 -0.04197912 0.10907387
0000c0 41 b7 31 bd e6 0d 13 3d de 02 72 bd bc 9c e4 bd
       -0.043387655 0.035901926 -0.059084766 -0.11162707
0000d0 6d 92 a1 bc 0b b5 93 bd 37 ef 3d 3d cc 10 d3 bd
       -0.019723142 -0.072122656 0.04637071 -0.10305938
0000e0 03 76 92 bc 0e f6 9c bd e9 bf 5d bd 4e 59 15 bd
       -0.017878538 -0.07664119 -0.054138098 -0.03646212
0000f0 b8 83 af 3c 0f 1d 8c bd de fd c6 3c 14 29 86 3d
       0.021425113 -0.0684148 0.024290975 0.06550804
000100 6b ee 5a 3d 72 cd a2 bc 7f a1 91 3d a6 1e b4 3d
       0.05345003 -0.019873355 0.07110881 0.08794908
000110 47 6d 91 bd d1 37 52 bc 18 1d 6f 3c 77 ef c5 3d
       -0.07100921 -0.0128306905 0.014594339 0.09664815
000120 3b dd 50 bc 4c 68 ad 3d 90 a3 92 bd cb 5f 1d 3c
       -0.012748058 0.08467159 -0.07160103 0.009605358
000130 b9 12 54 bb b2 a8 84 3c 60 74 cf 3d 85 eb d8 3c
       -0.0032359792 0.016193721 0.10129619 0.026479492
000140 57 9d 9e bc 9f 0a b2 bb 7d 51 6f bd f8 99 ef 3b
       -0.019362135 -0.005433395 -0.058427323 0.0073120557
000150 51 c3 01 3e 24 00 88 bd 08 d3 20 bd 48 6e e4 39
       0.12672164 -0.06640652 -0.039263755 0.00043569715
000160 b3 33 01 3e 7f 07 e3 3d d0 d5 98 3d 96 44 97 bd
       0.12617378 0.11085414 0.074626565 -0.073861286
000170 61 df bb bc cc 91 08 3d 9a ab e9 3c 03 bd 43 bd
       -0.022933664 0.033342168 0.028524209 -0.047787677
000180 24 a9 8c 3d 0e b6 28 3b 55 4f ea 3a 69 65 cf 3b
       0.068681985 0.0025743279 0.0017876426 0.0063292277
000190 75 e1 bf 3d a8 4c 99 3d 6d eb 9d 3d ff 3b e5 bd
       0.093691744 0.07485324 0.077109195 -0.11193084
0001a0 d4 47 b8 bd 24 cb 38 bd 58 52 86 bd 2b 65 5e 3d
       -0.08998075 -0.045115605 -0.065586746 0.0542957
0001b0 31 a1 8c bd e9 c8 80 3d 23 cd b1 3d 4d 1d ce 3d
       -0.06866682 0.062883206 0.08681705 0.100641824
0001c0 d3 7e a7 3d a3 d9 a5 bd 11 af 4b 3c cc 1d 79 bd
       0.08178487 -0.080981515 0.012431876 -0.060819432
0001d0 b6 10 b6 bd 04 10 cc 3c 58 ac e3 3d 0c 9b 03 3e
       -0.08889906 0.02490998 0.11116856 0.12852114
0001e0 36 1b c4 3d 21 34 60 3d f0 36 f2 bd 49 7c 5b 3d
       0.095755026 0.054737214 -0.11826885 0.053585324
0001f0 6b 61 52 3d 2a dc b3 3c 54 56 3a 3d 8b 5c a0 bd
       0.051362436 0.021955568 0.045492485 -0.07830151

encoder.bn1.weight f4 [128]
000000 f5 ec 80 3f 8b cf 84 3f 27 79 7d 3f c0 08 93 3f
       1.0072314 1.0375837 0.9901299 1.1487045
000010 d7 26 9b 3f c7 a2 92 3f 78 9e 88 3f d0 9f 9a 3f
       1.2121228 1.1455926 1.0673361 1.2080021
000020 06 93 a1 3f 1c b3 ef 3f f6 71 ac 3f 89 2d b2 3f
       1.2622993 1.8726535 1.3472278 1.3920146
000030 55 9c 94 3f 5a bf 8a 3f d8 11 31 3f 48 30 ab 3f
       1.1610209 1.0839646 0.6916785 1.3374109
000040 5b 67 90 3f cd f4 87 3f 3c 02 5a 3f a5 d1 af 3f
       1.1281542 1.0621582 0.8515966 1.3735853
000050 77 da 79 3f 16 1e 8a 3f e8 5a 93 3f 55 cf 86 3f
       0.97598976 1.0790431 1.1512117 1.0532023
000060 94 20 62 3f eb ba a1 3f f0 cc 77 3f 47 2b 50 3f
       0.8833096 1.2635168 0.96797085 0.81316036
000070 b9 38 84 3f 62 4e 9b 3f 27 41 93 3f 0a ac 29 3f
       1.032981 1.2133296 1.1504258 0.66278136
000080 63 fc b5 3f 34 7d a2 3f cf 0f 7b 3f 7e dd 89 3f
       1.4217647 1.2694459 0.98070997 1.0770719
000090 e1 86 87 3f 09 29 71 3f 6c a4 8f 3f 09 ab 7b 3f
       1.0588037 0.9420324 1.1222053 0.98307854
0000a0 8e 4f 99 3f 34 a0 48 3f 51 0b 84 3f 0c 7d 9d 3f
       1.1977403 0.7836945 1.0315953 1.2303786
0000b0 ad 6e 79 3f e2 4b 8f 3f c5 73 ca 3f 03 b9 84 3f
       0.974345 1.1195033 1.581658 1.0368961
0000c0 34 fc 7c 3f 4b 06 86 3f 2d ab 8b 3f 65 a9 8f 3f
       0.9882233 1.047067 1.0911614 1.122357
0000d0 e7 40 a3 3f b3 6e cb 3f ae 97 a2 3f 17 ad 61 3f
       1.2754182 1.5893158 1.2702539 0.8815474
0000e0 d0 fb 41 3f 29 d4 ac 3f b0 54 9d 3f 83 e1 06 40
       0.7577486 1.3502246 1.229147 2.1075141
0000f0 3d 6c b6 3f 2c c1 93 3f e8 a7 76 3f e7 e2 6d 3f
       1.4251782 1.1543326 0.96349955 0.9292435
000100 e2 25 7d 3f 4b 85 8c 3f 1e 09 78 3f 73 ca e9 3f
       0.9888593 1.0978178 0.9688891 1.8264908
000110 3f 1a 65 3f 0d a6 59 3f 5b f4 55 3f 19 00 94 3f
       0.89493173 0.85019 0.8357598 1.156253
000120 63 76 87 3f 0d a4 95 3f d6 d5 9c 3f de 41 5e 3f
       1.0583004 1.1690689 1.2252758 0.86819255
000130 71 c7 80 3f 29 98 4d 3f 22 df 8a 3f 44 47 be 3f
       1.0060865 0.803103 1.0849345 1.4865499
000140 c5 ce 83 3f bb 2b 7f 3f 04 c7 56 3f 80 a9 7a 3f
       1.0297476 0.996761 0.83897424 0.97914886
000150 65 d6 40 3f e7 30 42 3f 6d 63 43 3f fc 60 76 3f
       0.7532714 0.7585587 0.76323587 0.96241736
000160 fe 28 a0 3f c6 73 84 3f 1d a0 a0 3f fc e2 68 3f
       1.251251 1.0347831 1.2548863 0.9097135
000170 a4 72 ab 3f c5 32 8b 3f ee ec 64 3f 04 42 9d 3f
       1.339436 1.0874869 0.89424026 1.2285771
000180 79 bc 50 3f 63 9f b7 3f a9 c4 45 3f 10 cc 47 3f
       0.81537586 1.4345516 0.77253205 0.7804575
000190 8d e4 61 3f 9b 45 99 3f f1 5b 3a 3f dd 48 a9 3f
       0.88239366 1.1974367 0.7279654 1.3225361
0001a0 72 1f 62 3f c7 7e 1c 3f 79 2b 8f 3f 98 f8 8b 3f
       0.8832923 0.61130947 1.1185142 1.093524
0001b0 65 0f 9e 3f 8a 86 8c 3f ce cb ae 3f 6b 5c 96 3f
       1.2348448 1.0978558 1.3655946 1.1746954
0001c0 8d 57 b8 3f 0d cb 80 3f 29 32 85 3f 3a 42 a8 3f
       1.4401718 1.0061966 1.0405933 1.3145211
0001d0 57 e0 8c 3f bb 6c 30 3f fd e4 4d 3f 2a 61 1d 3f
       1.1005963 0.6891591 0.80427533 0.61476386
0001e0 ca 24 75 3f e5 ee 7e 3f c3 2f 81 3f 81 25 71 3f
       0.9575926 0.99583274 1.0092701 0.9419785
0001f0 eb 2f a3 3f 4b 8e 8c 3f f4 a2 85 3f 4c 7b 80 3f
       1.2748998 1.0980924 1.0440354 1.0037627

encoder.bn1.bias f4 [128]
000000 21 cb 83 3f d3 f2 02 3e 0a cf 69 3e 9d ea d9 be
       1.0296365 0.12787943 0.22832885 -0.42561808
000010 71 60 63 3e 43 91 84 3e c2 69 4c 3d c2 64 c8 3e
       0.22204758 0.25892076 0.049905546 0.39139372
000020 93 ec 86 3e 16 93 a6 3f 17 d0 cb be 18 bd 04 3e
       0.26352367 1.3013637 -0.39807197 0.12962759
000030 42 c2 ab 3e d7 39 e2 3e 70 49 bc 3e 4c 85 8a be
       0.33546644 0.44184753 0.36774778 -0.27054822
000040 01 4d d7 3e 7a 5b 1f 3f fb b4 0a bf ac 27 53 3f
       0.42050937 0.6224896 -0.54182404 0.8248241
000050 47 a3 73 3f 2a 91 20 be db d5 0a 3f b4 0b 38 3f
       0.95171016 -0.15680376 0.5423257 0.7189286
000060 98 0c ef 3e f5 0c 2d bd 09 fb 97 3e 19 88 21 be
       0.46689296 -0.042248685 0.29683712 -0.15774573
000070 24 d8 d8 be 6e 8b 8d 3e d6 09 1a 3e b8 0a 63 3f
       -0.42352402 0.2764544 0.15042815 0.8868823
000080 10 7e e7 3c b1 ba b0 be 4e a2 85 3d 84 cc 2f 3f
       0.028258353 -0.34517434 0.06525098 0.6867144
000090 1a 12 3b 3f f6 92 41 3f 5f ad d4 bd 72 d1 bf 3e
       0.73074496 0.7561487 -0.103846304 0.37464482
0000a0 46 90 a6 3e 1f 1e 06 3f f2 b0 17 3f c3 cd d9 3d
       0.32531947 0.5238971 0.5925437 0.10634949
0000b0 a9 a5 9b 3e a6 2e a4 3e c6 3f 7b bf 01 ca 27 3f
       0.30399826 0.3206684 -0.98144186 0.6554261
0000c0 86 a5 60 3e 58 35 6a 3e f1 ba 18 bc d3 f2 fe bd
       0.21938142 0.22871912 -0.009321914 -0.12448659
0000d0 0d b1 5f 3f e7 c0 34 bf 97 e2 49 3c d3 98 eb be
       0.87379533 -0.70606846 0.01232209 -0.46015033
0000e0 25 df 94 be 52 60 1e bf fc 0c 4a 3f 2c 93 f6 3f
       -0.29076496 -0.61865723 0.7892606 1.9263663
0000f0 30 9c 97 be 38 6e 8c 3f 88 8c 0e 3f 28 34 db bc
       -0.2961135 1.0971136 0.55683184 -0.026758268
000100 7e 4a e3 bd dd 5c 02 be 62 5f 8b 3f dd 29 8b 3f
       -0.11098193 -0.12730737 1.0888484 1.0872151
000110 3b 4a 1f bb 29 05 cb be 08 5b b8 3e f4 18 c5 3e
       -0.002430572 -0.39652374 0.3600695 0.384956
000120 15 81 ea 3e 0d 5d 38 3e 59 ed 0a 3e aa 27 9e 3e
       0.45801607 0.18004246 0.13567103 0.30889636
000130 e4 d9 35 3e 18 bd 35 bf 32 1f c8 bc c0 d5 01 3d
       0.177589 -0.7099166 -0.024428938 0.03169799
000140 80 23 6a 3d 6e 2d 56 3e 83 09 37 3e 58 f9 9e bc
       0.05716276 0.20915768 0.17874722 -0.019406006
000150 de c9 b1 3e 45 79 4a bf b6 ac f0 bc 68 11 d3 bd
       0.34724325 -0.7909129 -0.02937923 -0.10306054
000160 6d 1c e6 be ee ae f3 3d 3c 3d aa 3e 28 3f 07 3f
       -0.44943562 0.118985996 0.33249843 0.52830744
000170 62 12 5f 3e 3b 25 28 3f c4 01 5f 3e d5 8a 90 3d
       0.21784356 0.6568181 0.21778017 0.0705773
000180 85 d3 95 be 8d 0e 51 bc 2c 5a 02 3e 0f 6c e7 be
       -0.2926294 -0.012759817 0.1272971 -0.4519963
000190 81 7e eb 3e 2f 45 b9 bd fd 8c 79 bd 1f 02 41 bf
       0.45994952 -0.09046399 -0.060925473 -0.7539386
0001a0 0c c4 3f be 8e e6 ba 3d 53 bb 63 bd 39 1c dc 3e
       -0.1872713 0.09126006 -0.05559857 0.42990282
0001b0 96 d5 a9 3e 7f 62 0c be 4b d3 0d 3e 64 09 ea bc
       0.33170766 -0.13709448 0.13850133 -0.02856893
0001c0 03 a6 d7 bd 62 fd 7a 3e b4 06 4d 3f 5e a8 3a bf
       -0.10529711 0.2451072 0.80088353 -0.7291316
0001d0 10 b8 87 be f4 15 d8 be 8a c2 97 be 7d 99 83 3e
       -0.26507616 -0.4220425 -0.2964061 0.2570304
0001e0 7d ca 8a 3e df 86 5a bd 0b ac 44 3f bb 22 8e 3e
       0.2710761 -0.05335128 0.76825017 0.27760872
0001f0 d2 7b 95 be 4f 10 ce 3d 19 3c 1b 3e f5 0a 08 3f
       -0.2919603 0.10061704 0.15159644 0.5314172

encoder.bn1.running_mean f4 [128]
000000 9a 5d f5 bd 64 e8 0c 3d 5c 82 36 be 63 15 08 be
       -0.11980744 0.034401312 -0.17823166 -0.13289408
000010 30 e6 08 be 15 36 f4 bd a8 76 69 3d 29 a6 46 3d
       -0.1336906 -0.11924378 0.056997925 0.048498306
000020 36 0a 13 be 6c 4f 1b 3e 69 1d da 3d 34 26 6c 3d
       -0.14359364 0.15167016 0.10650141 0.05765362
000030 6b 0a 06 3e 8b 8a ff bd 25 fe 31 3e 9e f0 56 be
       0.13089912 -0.12477597 0.17382105 -0.20990226
000040 77 ed 56 bd cd 7c 87 3d 9b c2 3c 3d 57 af f8 bc
       -0.052472558 0.06615601 0.046084028 -0.030357046
000050 0e af b1 3d 80 4f 09 3d 0b 1f 72 3d 80 f9 4d bd
       0.08675967 0.033523083 0.059111636 -0.05028677
000060 9b 67 d9 bc 9f db b2 bd e9 6d df bc 3e 36 ef bd
       -0.02653866 -0.08733296 -0.027274089 -0.11680268
000070 c6 75 d0 bd ff 2b 1b be 3f fc 6d 3d e6 ff 23 be
       -0.101787135 -0.15153502 0.05810189 -0.16015586
000080 2c 98 ac bd c2 f3 43 be cb df 19 3d 98 c3 cf bc
       -0.08427462 -0.19135955 0.03756694 -0.025361821
000090 20 00 10 bd dd 35 e9 3c 19 ba 84 3c 4d d1 15 be
       -0.03515637 0.028468067 0.01620202 -0.14630623
0000a0 77 e1 07 bd 27 49 c5 3d b1 14 de 3c e3 2d 53 bd
       -0.033174004 0.09633093 0.027109476 -0.051557433
0000b0 df 97 20 be 73 6c 1e 3d 2a 92 b1 be 63 00 6d 3d
       -0.15682934 0.038677644 -0.34681827 0.057861697
0000c0 3b 84 bd bd f8 6d 64 bd e0 37 22 be 5d 98 f5 bd
       -0.092537366 -0.055768937 -0.15841627 -0.119919516
0000d0 46 f7 0e bd 8a 40 a1 be 6b 25 5d bd d5 ef 83 be
       -0.034903787 -0.31494552 -0.053990763 -0.25768915
0000e0 b4 0d bb bc 7b 7d 64 be 7d 3d bb bd 6a 0d 07 3e
       -0.022833683 -0.22313492 -0.09142587 0.13188711
0000f0 ca ed 5e be 3d 83 d2 bb 19 a7 42 bc d8 a7 b9 3d
       -0.21770397 -0.006424336 -0.0118806595 0.09065217
000100 aa ed 06 bc a4 c4 e5 bd b1 9a 50 3b fb b2 80 3e
       -0.008235374 -0.11219147 0.0031830485 0.2513655
000110 39 aa 8b bd 5f 11 ab bd 3a 7b c9 bd 06 da 9c 3d
       -0.06819577 -0.08352923 -0.09837957 0.07658772
000120 e4 d0 e9 3d 1c 75 57 3d 0f 67 56 bd 83 a2 dd 3d
       0.11416796 0.05260192 -0.052344378 0.10822012
000130 39 b1 a7 3b fb a6 bd 3d a2 52 0c 3e 8d 2b 05 be
       0.005117562 0.092603646 0.13703397 -0.13004895
000140 33 aa 25 bd 1e 1b 22 bd 27 c3 90 bd 6b f6 16 bd
       -0.040445518 -0.039576642 -0.07068472 -0.036856096
000150 8f 67 cb 3d ea 22 47 bc 77 12 88 bd 79 88 8d bd
       0.099318616 -0.01215432 -0.06644147 -0.06910796
000160 3b 2b 27 bb e6 63 24 3e cd 07 7a 3d 9f 48 e0 bd
       -0.0025507945 0.16053733 0.061042596 -0.109513514
000170 d3 86 07 3e d0 e6 cd 3c 74 36 1a 3e d0 0f 94 bd
       0.13235025 0.025134474 0.15059835 -0.072295785
000180 8c 94 88 bc f9 52 a2 bd 38 d3 3e 3d 64 17 4c 3d
       -0.016672395 -0.07925982 0.046588153 0.049826995
000190 7f a2 b5 bb 9e a1 8d 3c 8c a0 4a 3d 58 71 c0 be
       -0.0055430527 0.01728898 0.049469516 -0.37586474
0001a0 ff aa dc bd 0f 28 1a 39 63 14 e3 bd 14 ff ba 3d
       -0.107748024 0.00014701507 -0.11087873 0.091306835
0001b0 b6 9e ae bd 30 ad 29 3d 96 c0 65 3d 3c 1b 2d 3d
       -0.085263655 0.04142493 0.056091867 0.0422623
0001c0 5b 01 e4 3d 39 02 8b bd 29 b1 a7 3d b1 e8 a4 be
       0.11133071 -0.06787533 0.081880875 -0.3220878
0001d0 2a ad 87 be 3f 1a 13 bd d2 16 f8 3c de 95 07 3e
       -0.264993 -0.035913702 0.03028432 0.13240764
0001e0 82 04 2e 3d 37 45 cd 3a db af 56 bd bf 52 55 3d
       0.042484768 0.0015660886 -0.052413803 0.052080866
0001f0 b5 78 26 bc 78 51 56 bd fe ef 5e bc 40 b6 f9 bc
       -0.010160615 -0.05232379 -0.013607023 -0.030482411

encoder.bn1.running_var f4 [128]
000000 b1 74 77 3c dd f2 6c 3c d5 40 a5 3c e4 ce 02 3d
       0.015103505 0.0144622 0.020172516 0.031935588
000010 8c 1e 9f 3c a5 9b 64 3c 42 a9 ed 3c 4b 87 8f 3c
       0.019423746 0.013953124 0.029011372 0.017520567
000020 4e 21 8a 3c f2 7c 92 3b 45 35 4b 3d 5c d1 8f 3c
       0.016861584 0.004470461 0.04961135 0.017555885
000030 12 14 55 3c 8b 88 90 3c 71 a9 13 3c 9d 3d c9 3c
       0.013005273 0.017643234 0.009012566 0.024565512
000040 d9 d1 58 3c a3 ca 5d 3c 91 3f 1f 3c 51 3b 80 3c
       0.013233625 0.013537082 0.009719745 0.015653284
000050 2f 4b 5e 3c 8d 05 6e 3c 6d bc 95 3c 6f d1 98 3c
       0.01356773 0.014527691 0.018278325 0.018654553
000060 6f 9f 9f 3c b4 f7 8c 3c 9e ce b3 3c 95 ce 66 3c
       0.019485204 0.017207958 0.021949109 0.014087339
000070 f6 f6 d1 3c 77 f1 80 3c e7 eb 90 3c c6 6d 9c 3c
       0.025630455 0.01574014 0.017690612 0.019095313
000080 35 45 d6 3c dd 6c d8 3c 74 55 4b 3c 24 f2 12 3c
       0.026156047 0.026419098 0.01241051 0.008968864
000090 0d e9 52 3c 1a 0f 7c 3c 13 fd b2 3c ae 87 74 3c
       0.012872946 0.01538446 0.02184919 0.014924927
0000a0 2e 11 41 3d 14 ea bb 3c b2 0a 58 3c 22 e7 48 3d
       0.047135524 0.022938766 0.013186144 0.04904855
0000b0 4e fd dc 3c 10 b6 8c 3c 45 46 26 3d 68 f6 95 3c
       0.026976254 0.017176658 0.040594358 0.018305972
0000c0 4a 95 98 3c 2b 2e b5 3c d7 b1 67 3d 4f 9c ad 3c
       0.018625874 0.022116741 0.056566086 0.021192698
0000d0 6c 35 a6 3c ba 56 13 3d 20 9a 87 3c d8 bf 20 3d
       0.020289145 0.03597138 0.016552985 0.039245456
0000e0 e5 49 2c 3c 4a 73 e6 3c 06 a3 a3 3c 02 ed 89 3b
       0.010515665 0.028131146 0.019975197 0.0042091617
0000f0 a2 1a 1d 3c 24 8a 34 3c ac cb aa 3c 8e 6d 59 3c
       0.009588869 0.011019263 0.020849071 0.013270749
000100 3e 70 9e 3c 72 99 ab 3c 07 31 53 3c d5 d4 8d 3b
       0.01934063 0.020947192 0.012890107 0.00432835
000110 70 3e dd 3c 8c 21 41 3c 43 a8 15 3d ea b7 6f 3c
       0.027007312 0.011787783 0.03653742 0.014631251
000120 aa 3c 00 3c 93 3c 9c 3c 81 f3 33 3d 37 7e 02 3c
       0.007826963 0.019071853 0.043933395 0.007964662
000130 20 32 ef 3c 2c 11 bf 3b 57 f4 34 3c 79 b2 10 3d
       0.029198706 0.0058309045 0.011044583 0.035326455
000140 aa 33 0e 3d 08 3d 41 3c 0e 77 b3 3c 14 5b a9 3c
       0.03471724 0.011794336 0.021907356 0.020673312
000150 ea bb 82 3c 7c d8 bf 3b 3c 07 57 3c ed 35 76 3c
       0.015958745 0.0058546644 0.013124283 0.015027505
000160 e5 0b fa 3c d2 9e 3a 3c 12 e1 bb 3c 7a ae a8 3c
       0.03052325 0.011390405 0.02293447 0.02059101
000170 61 2b 9c 3b 26 51 6d 3c ec 9f cf 3b ef d2 b3 3c
       0.0047659134 0.014484679 0.006336203 0.021951167
000180 7e 0e 39 3c 0f 3d af 3c 2f 55 44 3c 2f 32 08 3c
       0.011294959 0.02139142 0.0119832 0.008312746
000190 88 8c c1 3c 24 b4 94 3c 86 20 31 3c b1 f1 d8 3c
       0.02362658 0.018152304 0.010810977 0.026482435
0001a0 5f d4 44 3c cd 7b 38 3c de 04 b9 3c 76 08 88 3c
       0.012013524 0.011259985 0.022585329 0.016605597
0001b0 8d bf 49 3d 24 d8 5f 3c 44 ab cb 3c 19 68 37 3d
       0.049254943 0.013662372 0.02486194 0.04477701
0001c0 a3 73 0c 3d 27 a5 86 3c c2 4c 46 3c 52 24 8d 3c
       0.034289967 0.016436173 0.012103261 0.017229233
0001d0 e8 0b ed 3c 3b 3b 2b 3c 48 68 5c 3c ee 49 54 3c
       0.028936341 0.010451133 0.013452597 0.012957079
0001e0 59 3a c8 3c 2c 69 93 3c 4e 96 58 3c 6f c0 a7 3c
       0.024441885 0.017994486 0.013219429 0.020477502
0001f0 9e 2d b6 3c df 2a 09 3d 74 ea 6f 3c 66 47 6f 3c
       0.022238549 0.03348815 0.0146433 0.014604425

encoder.dense2.weight f4 [16, 128]
000000 01 d2 86 3b 46 b3 27 3e 87 b6 f9 bd f4 9b b9 bd
       0.00411439 0.16376981 -0.121930175 -0.09062949
000010 05 19 24 bd 85 d0 95 bd 1c 92 12 be 18 0c 81 3c
       -0.040062923 -0.073151626 -0.14313549 0.015752837
000020 bd 1a d9 3d 9a a2 95 3e f7 30 a6 bd f5 a3 74 3c
       0.10600803 0.29225618 -0.08114808 0.0149316685
000030 c7 53 12 3d 7b 34 99 3c 13 10 76 3e 33 92 5d be
       0.035724428 0.018701782 0.2402957 -0.21637802
000040 39 a7 b2 3b 5d 5a 33 3d ff a5 4b 3e e0 9f 5b bd
       0.0054520634 0.04378735 0.19887541 -0.053619266
000050 45 39 73 3d 2e 95 be 3d 43 81 67 bd 9e 25 ef bd
       0.05938079 0.093057975 -0.056519758 -0.11677097
000060 48 16 54 bd 83 c0 13 bd e6 9f 81 3d 56 40 ed 3d
       -0.05177906 -0.036072265 0.06329326 0.11584537
000070 84 cd 33 be 47 7f 4d bd fa d9 d1 3b 95 a1 0d 3e
       -0.17558867 -0.05017021 0.0064041587 0.1383117
000080 8b f7 ab bc bf 7e 86 be f3 a0 f2 3d d5 e0 91 bc
       -0.020992061 -0.26268575 0.11847105 -0.017807404
000090 19 47 d9 bc ba 7a 8d bd 69 b2 0a bd b3 d4 30 bd
       -0.02652316 -0.06908174 -0.03386155 -0.043171596
0000a0 bf a0 01 3d b8 50 a4 bd 99 34 67 3e 6b af fb bd
       0.03164744 -0.080232084 0.22578658 -0.12289318
0000b0 30 18 a1 bd 63 5d 2b 3e c6 d8 b8 be 9b 82 49 3d
       -0.078659415 0.16734843 -0.36102885 0.04919682
0000c0 09 ae 0e 3e fd ce b6 bd d9 ea 1e 3d 29 34 97 3d
       0.13933577 -0.08926199 0.038798187 0.07382996
0000d0 00 cd 21 3d ea b5 8e be a3 0a 6e be 48 ac 5f be
       0.039502144 -0.27873164 -0.23246245 -0.21843064
0000e0 bd 9a 30 3e e1 88 9e 3b 86 2d 5f 3d 85 2d 9b 3e
       0.17246528 0.0048380946 0.054486774 0.30308166
0000f0 61 30 8d be 8a d6 ca 3d 59 1e cb bc a5 7e 84 3c
       -0.27575973 0.09904201 -0.024794744 0.01617367
000100 d6 3a f6 bc e9 6e 95 bd 33 53 91 be 70 08 92 3e
       -0.030057352 -0.07296545 -0.28383788 0.28522062
000110 54 ab 3e bd f2 3f b3 3d 2e 70 09 bd 85 46 9f 3c
       -0.04655011 0.08752431 -0.03355425 0.019442806
000120 aa af 78 3e c4 88 b5 3c ba 40 78 3d 22 02 23 3e
       0.2428576 0.022159941 0.060608603 0.15918782
000130 64 05 7f 3b e5 85 27 3e ec dc 89 3d 65 e6 3d be
       0.0038913125 0.1635967 0.06731591 -0.1854492
000140 bb 95 48 3d 42 3f c2 bd 6d 21 04 3c d3 d0 8e 39
       0.04897092 -0.09484722 0.00806461 0.00027239937
000150 1c 2e 89 3d 99 15 68 3e e6 c0 00 3e 65 43 b7 3d
       0.06698248 0.22664489 0.12573585 0.08948401
000160 5d 37 2d be 1b 7c 25 3a e9 41 0c bd 67 b8 89 bd
       -0.1691565 0.00063127436 -0.034242544 -0.06724625
000170 77 3e 90 3e 5b d8 a1 bd 7b 4d 47 3e 1d 9c cc bd
       0.28172657 -0.07902595 0.1946315 -0.09990714
000180 30 78 6d 3d 9c 7a da bd d8 d1 6e 3e 7c 46 3d 3d
       0.057975948 -0.10667917 0.23322237 0.046209797
000190 68 c8 ea 3b c5 90 ed bd 96 39 2f 3e 51 db 8a be
       0.0071650036 -0.11599878 0.17111811 -0.2712045
0001a0 1a 0a 19 3d 98 e6 30 3e 7a 6f 2a 3c b8 3c ba 3d
       0.03736315 0.17275465 0.010402555 0.090936124
0001b0 ef bc 88 bc 62 b8 f9 3d ef ce c7 bc 62 12 df 3c
       -0.016691653 0.12193371 -0.024390666 0.027230445
0001c0 0d 3a 86 3c 6d eb 86 3c 94 8a d4 3d 05 97 97 be
       0.016385103 0.016469682 0.10377994 -0.29607406
0001d0 97 77 2d 3e 2a 13 5a 3e 8c a2 18 3e 4f 87 32 3e
       0.16940151 0.21296373 0.14905757 0.17434429
0001e0 51 00 9e bd ab f6 8f 3c 0c e4 5e 3a d5 41 37 3e
       -0.07714904 0.017573675 0.00085026096 0.17896207
0001f0 db fd 4c bd 6f 79 b6 bd c5 00 9f bd b3 38 22 3e
       -0.050046783 -0.0890988 -0.07763819 0.15841942
000200 ff 71 ef bd e3 30 04 be 00 2e 4d bd 98 53 8c 3e
       -0.11691665 -0.12909274 -0.050092697 0.27407527
000210 3c ec 40 be 0a c0 b5 3c da 40 e0 bd 97 a3 b2 bd
       -0.18840116 0.022186298 -0.109498695 -0.087226085
000220 7b 81 f9 bd 3b 0e 0d 3e 4f e7 17 3e 3e cc 71 bd
       -0.121828996 0.1377496 0.14834331 -0.05903267
000230 63 7d 80 bd 92 e4 54 be 0f eb 3e be 9f 13 c8 bc
       -0.062739156 -0.20790318 -0.18644355 -0.024423419
000240 98 6f 69 3e 02 79 89 bd ec 74 44 be a3 02 50 3d
       0.22796476 -0.067125335 -0.19185227 0.050783765
000250 2f d1 5e bc 22 c3 bf bd b2 44 b6 3c d1 9c 2e be
       -0.013599678 -0.093633905 0.022249553 -0.17052008
000260 97 c1 c0 3d 66 de fc 3b 31 9b 2f bc ed 63 33 be
       0.09411924 0.0077169416 -0.010718153 -0.17518587
000270 86 d1 5e 3e 75 ed b3 bd 3c 2e 04 bb 9b ad 6c be
       0.21759614 -0.08785526 -0.002016916 -0.231131
000280 3f 88 7b bd 59 ad a2 be 73 c3 cd bd e8 70 f8 3e
       -0.06140923 -0.3177288 -0.100470446 0.4852364
000290 ba 32 68 3c 11 94 5a 3d 0e ea 70 bd b0 ec 62 bd
       0.01417225 0.053363863 -0.058816962 -0.055401504
0002a0 f9 1c 8a 3d 0b c5 1f be 7d ec 06 be a3 8b a3 3c
       0.06743807 -0.1560251 -0.1317615 0.019964045
0002b0 bf ac 5f be e1 77 72 be 1c 5f e1 bd ea 87 f3 bd
       -0.21843241 -0.23678543 -0.11004469 -0.11891158
0002c0 76 64 62 be 81 87 0d bc 8c 50 b0 3c 99 cb a4 bc
       -0.22108635 -0.008638264 0.021522783 -0.020116614
0002d0 7c 55 83 3d b1 a9 4a bd a1 f0 b1 3d 8d 1a 85 3e
       0.06412789 -0.049478237 0.086884744 0.2599682
0002e0 30 34 43 be 86 8e 09 bd 07 2b 3a 3c 53 44 76 3e
       -0.19062877 -0.033583187 0.011362798 0.24049501
0002f0 f9 e9 a6 bd 7c 5f e3 3c e2 7b 75 3d b0 7d 6c 3d
       -0.081500955 0.027755491 0.059932597 0.057737052
000300 05 25 e1 3d b4 c7 b8 bd 83 81 e4 3d 83 d2 56 3e
       0.10993389 -0.09022465 0.11157515 0.20978741
000310 e0 66 28 3e 92 3a 9e be 7c 97 57 3c b0 08 e6 bd
       0.16445494 -0.3090406 0.013158675 -0.11232126
000320 53 91 4c bd d5 35 0e be 8e bd 00 3e fd c3 24 be
       -0.04994328 -0.13887723 0.1257231 -0.16090389
000330 b3 e5 83 bd 57 c9 14 be 4d 08 59 be 13 a1 b0 bd
       -0.06440296 -0.1452993 -0.21194573 -0.086244725
000340 f2 9f 67 3d 02 24 ff 3d e5 4c 1d 3c f9 3f 0c be
       0.05654902 0.1245804 0.009600853 -0.13696279
000350 bd 9e 5e be ec 51 a7 bd d3 55 9c be 9e f4 88 be
       -0.21740241 -0.08169922 -0.3053423 -0.26749128
000360 b5 6c 9f 3c 49 62 b5 bc bc 2c a6 3c 9e 03 3c be
       0.019461015 -0.022141593 0.020285003 -0.18360755
000370 b2 ae 5b 3c 5b 9f 2f 3e f0 00 08 3e da d2 5a 3d
       0.01340835 0.17150633 0.13281608 0.05342374
000380 ea 70 52 be 61 94 03 be c1 a0 70 be 47 31 21 be
       -0.20550886 -0.12849571 -0.23498823 -0.15741454
000390 58 ab 21 be 57 af 05 3e c2 1b 71 be 18 45 7e be
       -0.15788019 0.13055168 -0.23545745 -0.24831045
0003a0 8f b6 00 be f0 22 60 be b4 98 a3 be 4d 2f 7f bd
       -0.1256964 -0.21888328 -0.3195244 -0.06230097
0003b0 50 f6 27 3e 86 e3 20 be 7e e9 b5 3d 1c 99 0c bd
       0.16402555 -0.15711793 0.08882426 -0.034325704
0003c0 4b 34 fb 3d 59 20 26 3c 84 29 57 bc 28 38 1b be
       0.122658335 0.010139548 -0.013132457 -0.1515814
0003d0 b3 d1 67 be e6 87 8d be cb f8 93 be 8b a2 78 be
       -0.22638588 -0.27642745 -0.2890075 -0.24280755
0003e0 6b e1 7c be 38 84 27 bd 4a f8 3f 3d ae 52 14 be
       -0.24695365 -0.040897578 0.046867646 -0.14484665
0003f0 6e 20 70 bd 6e dc 95 be 00 cb 16 3c a9 56 b1 bd
       -0.058624677 -0.29269737 0.009203672 -0.08659107

encoder.dense2.bias f4 [16]
000000 cd c1 39 3d 75 55 94 3d d0 70 94 3d c5 fd 3b bc
       0.04535084 0.07242862 0.0724808 -0.011474078
000010 06 34 91 bc b4 c4 de bd 09 86 b9 bd 77 a2 11 bd
       -0.017725002 -0.10877362 -0.09058768 -0.03555533
000020 4e 95 1e 3d 75 f3 30 bd 78 52 16 bd ee 6c b5 3d
       0.038716607 -0.04320093 -0.036699742 0.08858667
000030 30 3b 7f 3d 69 a5 0d bd 82 5d 5e 3d 41 08 84 bc
       0.062312305 -0.034581576 0.054288395 -0.016117217

encoder.bn2.weight f4 [16]
000000 80 77 1e 40 e4 28 11 40 d2 ae 09 40 da 4c 03 40
       2.4760437 2.2681208 2.1512952 2.0515656
000010 51 99 09 40 91 26 0e 40 75 55 03 40 fc 9f 12 40
       2.1499827 2.221104 2.052091 2.2910147
000020 26 ec 17 40 70 6a 0e 40 c5 e2 10 40 35 7a 07 40
       2.3737884 2.2252464 2.263841 2.116834
000030 f5 43 0b 40 db 64 11 40 11 af 0b 40 cf 1e 02 40
       2.1760228 2.2717807 2.1825602 2.0331304

encoder.bn2.bias f4 [16]
000000 40 66 ae bf fe e0 88 3e 8b 3f 2f bd 37 b4 07 3d
       -1.3624954 0.26734155 -0.04278521 0.03313085
000010 9f 17 e0 bd bc fc db 3e 4b d2 4d bd de 7e 9e bd
       -0.10942005 0.4296626 -0.05024938 -0.07739042
000020 ba fe 09 bf 27 68 b2 bd 9b 46 66 3d eb da 06 3c
       -0.53904307 -0.08711272 0.05621968 0.008230905
000030 f8 df e4 3d d4 19 c7 3e 89 67 a6 bd e6 e7 8e bd
       0.11175531 0.38886893 -0.081252165 -0.06977825

encoder.bn2.running_mean f4 [16]
000000 54 1a 01 40 55 77 d9 bf e7 30 82 bf 57 87 15 bf
       2.017232 -1.6989542 -1.0171174 -0.5840964
000010 b6 48 d4 3e c9 7d f2 bf dd 45 af be 3f b6 cf be
       0.41461724 -1.8944637 -0.3423299 -0.4056873
000020 dd e3 40 be 76 39 5c 3f ff 9a 32 3f 27 f3 4c bf
       -0.18836923 0.8602518 0.69767755 -0.8005852
000030 83 cf 8d 3f bd 6d 9b bf e8 11 0b bf 09 ed 42 3d
       1.1078953 -1.2142864 -0.543242 0.047589336

encoder.bn2.running_var f4 [16]
000000 c9 ee 22 40 0a 44 54 40 b1 aa 1a 40 76 20 35 40
       2.5458243 3.3166528 2.4166682 2.8301063
000010 f8 59 2f 40 34 c3 8f 40 76 90 1d 40 af 7b 05 40
       2.7398663 4.4925785 2.4619422 2.085674
000020 eb 30 a6 40 4f 63 02 40 1c 44 9f 40 ec 9a 31 40
       5.1934714 2.0373113 4.977064 2.7750807
000030 c6 ee 39 40 f4 9b a3 40 02 c0 30 40 35 6f 0f 40
       2.9051986 5.1127872 2.7617192 2.2411625

decoder.dec_dense1.weight f4 [128, 16]
000000 fa 6a ed bc 0b c3 de bd 4e f1 71 3e 79 14 e2 3d
       -0.028981674 -0.10877045 0.23627207 0.11039061
000010 60 14 2d be cb 94 99 be ea a4 43 3f a3 0c de 3c
       -0.16902304 -0.29996333 0.76423514 0.027105635
000020 e9 d3 4c be d7 ba e6 bc e7 1a f6 3e 7b f6 aa be
       -0.20002712 -0.028165264 0.480674 -0.33391175
000030 37 0c 52 bd 04 bc a3 bd 5c 8d a5 3d e2 01 d8 3e
       -0.05128118 -0.079948455 0.08083603 0.42188936
000040 11 b5 93 3d 2d be 46 bf 1f 37 9e bd ee 8d ad bc
       0.0721227 -0.77633935 -0.07725357 -0.021185841
000050 77 3c 08 3c 30 72 5c 3d 00 b3 29 bd 2f 65 08 bc
       0.008315197 0.053819835 -0.041430473 -0.008324905
000060 fb 65 06 3e a5 b2 cd 3d 01 39 89 3d 27 0a 15 3d
       0.1312484 0.10043839 0.06700326 0.036386635
000070 5a 4f 13 3d 89 49 a7 3d b7 61 5e 3d a1 24 08 bc
       0.035964347 0.081683226 0.054292407 -0.008309514
000080 a2 12 c9 3e da 10 1c bf 63 f1 c2 bd 89 ec c8 bc
       0.39272028 -0.60963213 -0.09518697 -0.024526851
000090 bd 5a a0 3d 06 29 39 be fc 98 d1 3c e6 15 a6 bd
       0.07829807 -0.18082055 0.025585644 -0.081096455
0000a0 63 ad 33 be a0 e7 b7 3d 76 c2 05 3e 49 23 b9 bd
       -0.1754661 0.08979726 0.13062462 -0.09039933
0000b0 15 c1 e0 3d 69 1a 9f be 36 a0 5d bd 78 f6 a8 3c
       0.109743275 -0.31074837 -0.054107867 0.020625338
0000c0 7a 32 08 bd e1 2c 70 be 23 8f 7d 3e 8e db 5b bd
       -0.033251263 -0.2345462 0.24761634 -0.05367618
0000d0 01 bd 75 3e db 05 99 3e a6 90 49 bc ac 04 28 bd
       0.2399788 0.2988728 -0.012302553 -0.04102008
0000e0 48 f1 54 3e 66 fb 90 be 37 99 d6 3d 64 ea c7 bc
       0.20795166 -0.28316802 0.10478442 -0.024403758
0000f0 60 fe dc 3e 1a a6 b0 3d 26 9d 02 3f bd 5c d6 bd
       0.43162823 0.08625431 0.5102104 -0.10466907
000100 b5 c6 4f 3d 78 0a 9d 3b 52 18 d2 bb fd 80 01 be
       0.05072661 0.0047925077 -0.0064115906 -0.12646861
000110 14 95 0c be 3f b4 8b bd 6b 8a 30 be e8 60 2e be
       -0.13728744 -0.068214886 -0.17240302 -0.17029154
000120 b7 e8 39 be b0 93 31 3e d0 50 fc bd f6 7f a3 bd
       -0.1815518 0.17341495 -0.12320101 -0.07983391
000130 61 13 fe 3d 14 fd 04 3e 16 99 4a 3e 0d f3 43 be
       0.1240604 0.12987167 0.1978496 -0.19135685
000140 c6 e1 2b 3d 20 fa fc bd fa 30 56 bd 62 b8 ff bd
       0.04196336 -0.12352395 -0.0522928 -0.1248634
000150 b2 22 b3 3c cc f8 08 3e ef f7 98 3e ad 90 c4 3d
       0.02186713 0.13376158 0.29876658 0.09597907
000160 f2 9c be bc 89 2b 01 bf 11 07 7e be e8 55 97 be
       -0.023268197 -0.50457054 -0.24807383 -0.2955773
000170 c3 e4 a4 be c9 c8 5b bc e7 6c a1 3e 59 e5 b3 be
       -0.3220578 -0.01341457 0.31528398 -0.35135916
000180 ea 4e 9e bc 08 94 e2 3d 68 2f aa 3d a6 67 db bd
       -0.019324739 0.11063391 0.08309823 -0.10713129
000190 d6 7a c5 bd e1 84 f4 3d 66 e1 a0 3e a6 38 ff 3d
       -0.0964257 0.11939407 0.31421965 0.12461977
0001a0 e5 d4 73 3d 54 21 af 3d 4f f1 b0 3e 9b ff 78 be
       0.059529204 0.08551279 0.34559104 -0.24316256
0001b0 16 2c 3e 3d 54 04 0a be fa dd aa be ee 39 7e be
       0.046428762 -0.13478214 -0.3337248 -0.24826786
0001c0 71 c8 0d 3e 8d 42 fb bd 2d 55 c8 bc bd 7e ce 3c
       0.13845994 -0.12268553 -0.024454677 0.025206918
0001d0 70 b3 16 be 6e 1d b4 3d 4f 61 da 3d e2 bc 13 3e
       -0.14716887 0.08794676 0.106630914 0.14427522
0001e0 b7 5f 0a be 07 b6 47 3e b4 73 15 3e 3e 11 b9 3c
       -0.13513075 0.19503032 0.14594918 0.02259123
0001f0 d4 35 28 be c7 71 1e 3d 3d a1 c8 3d 86 e1 1d 3e
       -0.16426784 0.038682725 0.09796379 0.15418062
000200 a6 a2 e8 3d 85 7d 80 3d 7f 8e 56 3c 62 1d 1c 3e
       0.11359148 0.06273941 0.013095497 0.15245584
000210 52 77 69 3e 2d c1 12 3e 85 0f 18 3d 11 fe 85 be
       0.22799423 0.14331503 0.037124176 -0.261704
000220 e2 3c 40 be a8 7b 5d 3d 06 76 9a bd e6 75 85 be
       -0.18773225 0.054073006 -0.075420424 -0.26066512
000230 44 61 19 be fe 9a 03 3d ca 99 bd bd 02 29 85 3e
       -0.1497851 0.032130234 -0.092578486 0.2600785
000240 f8 0f ab 3e 5f d9 1c bf e0 0c 04 3d 91 8b 9b 3c
       0.3341062 -0.6126918 0.03223884 0.018987449
000250 34 3f 37 3e 8e 3f 91 bb 00 a8 36 3d 82 af 2b 3e
       0.17895204 -0.004432625 0.04459381 0.1676617
000260 ac ee 6a be 51 88 d4 bd bd be 8c 3e 6b c8 4e be
       -0.22942609 -0.10377563 0.27489272 -0.20193641
000270 11 0f 43 3e d1 06 9f be 0a b6 a4 3d b1 b8 b2 3d
       0.19048716 -0.31059888 0.08042534 0.08726633
000280 49 3a 2e 3b d6 ff 84 be 6a bc f9 3d f4 cc b4 3d
       0.0026585034 -0.25976437 0.1219414 0.08828154
000290 4f e8 cc be 38 5e 39 be 52 8d 32 be cd b9 7d 3e
       -0.40020987 -0.18102348 -0.17436722 0.24777909
0002a0 15 00 b4 bc 81 b5 9f be 26 c4 99 bd 73 30 82 ba
       -0.021972695 -0.31193164 -0.075081155 -0.0009932652
0002b0 0f e2 82 be b0 96 97 be 22 45 06 bd a4 12 81 3d
       -0.25563094 -0.29607153 -0.032780774 0.063023835
0002c0 e5 99 a7 be ea ab a0 3c 64 ac 2d be 1a b3 e4 bd
       -0.327346 0.019613225 -0.16960293 -0.111669734
0002d0 9d 78 2e be 11 3a d5 be 9d c8 3d 3f f2 2c 09 3e
       -0.17038198 -0.41645864 0.74134237 0.13396052
0002e0 92 16 f0 3e 7f 20 96 bd 42 73 f9 bd 24 31 b8 be
       0.4689222 -0.07330417 -0.12180187 -0.3597499
0002f0 65 df 78 be e7 d8 c4 be 7c 2d f9 bc fc 78 a8 be
       -0.24303968 -0.38446733 -0.030417196 -0.32904804
000300 fc 28 ef bd 4f 20 96 3c 98 31 e7 bd ea ee ec bd
       -0.11677739 0.018325953 -0.11288756 -0.11569007
000310 f4 bc 45 bc d2 8a 3c be e4 d5 0e be 03 88 37 bd
       -0.012068976 -0.18412331 -0.1394878 -0.044807445
000320 70 ce 15 3e ae 55 8d 3c 0b 8f b0 bd e9 92 b6 bd
       0.14629531 0.01725277 -0.08621033 -0.0891474
000330 d4 f7 23 3e 52 32 6a be c1 55 59 3d 55 0e 31 bd
       0.16012508 -0.22870758 0.053060297 -0.04322656
000340 25 f7 d8 bd bc 4b ef 3d e8 b3 d0 bd 6e 9a b0 3e
       -0.10594014 0.11684367 -0.101905644 0.3449282
000350 da 44 12 3d 31 7a 89 bd bc 14 88 bd 25 9b 72 be
       0.035710193 -0.06712759 -0.0664458 -0.23691995
000360 a9 8e 9e 3e a0 09 4b 3e ff 4e 85 3e 88 21 93 3e
       0.30968216 0.1982789 0.26036832 0.2873652
000370 ae 22 0b bf 71 fd ff be 9f bc 2b 3e c5 2f 83 be
       -0.5434979 -0.49998048 0.16771172 -0.25622383
000380 7d dc 91 3c 82 74 1d bd 9c 2c 63 be 5b ed 94 be
       0.017805332 -0.03844119 -0.22184986 -0.29087338
000390 d0 fe 3f be 38 89 b2 3e c7 d1 f3 bb ad 6b 09 be
       -0.18749547 0.34870315 -0.007440779 -0.13419981
0003a0 9f 63 4e 3c ce 68 05 bc e9 3d c0 3e 18 6f 05 bc
       0.012596994 -0.008142663 0.37547234 -0.008144163
0003b0 09 f8 c5 bd ad b4 2d 3e 38 db 3c bf a0 19 93 be
       -0.096664496 0.16963454 -0.73772 -0.28730488
0003c0 39 bc 87 3d cc c8 5d bd 0b 31 33 3e f3 9a 6e 3e
       0.066276975 -0.054146573 0.17499177 0.23301296
0003d0 d1 2a a2 3d 88 87 37 be 19 6d 2d 3e 35 8d cd bd
       0.07918323 -0.17922795 0.16936149 -0.10036699
0003e0 42 9b f1 bd c0 12 8f 3d fa b1 91 bd 0b 79 16 3d
       -0.11797191 0.06985998 -0.071140245 0.03673653
0003f0 94 dc 36 3e 96 0f 0a 3d 26 11 40 3e 4c 7e a6 3d
       0.17857581 0.03370627 0.18756542 0.08129558

decoder.dec_dense1.bias f4 [128]
000000 aa 22 89 bf ea d2 c8 3e b1 0c 69 bf d4 60 1e bf
       -1.0713704 0.39223415 -0.9103499 -0.618665
000010 40 78 d3 3f bf 80 be 3f 0a 5b ed 3f b8 2e d2 3f
       1.6521072 1.488304 1.8543408 1.6420507
000020 c8 79 e1 3f 56 b4 3f c0 e7 05 c7 3e 4a a0 43 3e
       1.761529 -2.9953818 0.3887169 0.19104114
000030 67 72 ca 3f 75 45 42 3f fa 10 6f be d0 64 d8 3f
       1.5816163 0.75887233 -0.2334632 1.6905766
000040 f7 53 da 3f 43 7b 06 bf 72 71 43 3f 4f 05 13 3f
       1.7056874 -0.5253183 0.7634498 0.57429975
000050 f2 ca c7 3f f2 fe c6 3f 62 6d 85 3f b4 d1 8e 3f
       1.5608809 1.5546553 1.0424006 1.1157746
000060 94 db 28 bf db f2 d8 3f 63 07 7a 3f c7 3a 31 bf
       -0.6596005 1.6949114 0.9766752 -0.6923031
000070 43 c4 99 3f e6 f3 d8 3f ad 73 02 bf 5b 4c 36 bf
       1.2013019 1.6949432 -0.5095776 -0.7121026
000080 ca 7e a8 bf 97 69 1d 3f 6b 00 b4 3e 89 2f 98 3f
       -1.3163693 0.6148924 0.3515657 1.1889507
000090 34 20 22 3f 91 5b 9d 3f 7a 1c 00 c0 39 34 6b 3f
       0.6333039 1.2293569 -2.001738 0.9187656
0000a0 63 78 a1 3f 2e c7 09 3f cd 4e be 3f 9f 68 af 3f
       1.2614864 0.5381955 1.4867798 1.3703803
0000b0 4e 1f e2 3f 22 9c 66 3f 49 8b 64 3f 01 12 d9 3f
       1.7665803 0.9008199 0.8927503 1.6958619
0000c0 4a 8e 96 3e 35 28 b9 3f 39 1c 43 bf c3 c8 d7 3f
       0.29405433 1.4465395 -0.7621494 1.6858143
0000d0 36 4d b8 3f de 17 93 bf 27 28 14 be 71 86 1c 3f
       1.4398563 -1.1491659 -0.14468442 0.6114264
0000e0 30 d5 57 3f 16 ed 0b 40 de 8b b9 3e 27 02 a8 3f
       0.84309673 2.1863456 0.36239523 1.3125657
0000f0 94 2e 82 3f a2 43 18 be eb d6 37 c0 df 1a a3 3f
       1.0170465 -0.1486955 -2.8724926 1.2742575
000100 2d df 0d 3f c4 61 d4 3f a7 e2 40 bf 7f 3f 20 3f
       0.55418664 1.6592336 -0.75345844 0.6259689
000110 1f 90 03 3f a0 5d f5 be 9f 42 0f c0 32 27 3e be
       0.51391786 -0.47922993 -2.2384412 -0.1856964
000120 c8 82 a6 3f 0c a7 90 3e cc bc 69 bd e0 f0 7f 3f
       1.3008661 0.28252447 -0.057064816 0.9997692
000130 69 6c d5 3f 2a ed 93 bf 4f 3b a5 3e 47 59 d9 3f
       1.6673709 -1.1556752 0.3227181 1.698037
000140 d9 f2 ad 3f 26 49 68 3f 59 bd 07 3f f8 cc 2e c0
       1.3589736 0.90736616 0.53023297 -2.7312603
000150 46 43 87 be d1 e8 c8 3f 00 72 ca bf ab 3a ba 3f
       -0.26418513 1.569605 -1.581604 1.4549154
000160 f6 14 8d bf dd 4c 9e 3f a1 ef d5 3f 82 5d 94 3e
       -1.1022022 1.2367207 1.6713754 0.2897759
000170 a9 58 53 bf 43 b8 f3 3f 7c 68 d4 3f 89 95 dd 3e
       -0.8255716 1.9040607 1.6594386 0.4327815
000180 3d bd 89 3f cd ca e2 3e 9d 6b b6 3f a8 0c 99 3f
       1.0760876 0.4429535 1.4251591 1.1956987
000190 93 bf ce 3f ec c1 a2 3f c1 30 40 bd 59 aa e8 3e
       1.6152214 1.271543 -0.046921495 0.45442465
0001a0 a8 71 9c 3f a8 f9 a2 3f 15 02 66 c0 03 41 2a 3f
       1.2222185 1.2732439 -3.593877 0.6650545
0001b0 d1 33 ef be a1 27 e9 3f 22 82 b7 3e 80 7e 4a 3f
       -0.4671922 1.8215219 0.3584147 0.79099274
0001c0 19 31 87 3f 2a f7 a3 3f 0d fa 8f bd 08 29 91 be
       1.0561858 1.2809803 -0.07030115 -0.28351617
0001d0 27 86 73 3f 1d 2f 6e 3f d8 f1 e0 3f c7 56 da 3f
       0.95126575 0.9304064 1.7573805 1.7057732
0001e0 77 10 a9 bf 23 aa 59 3f 2a b5 9c 3f 7d 7b e0 bf
       -1.320815 0.85025233 1.2242787 -1.7537686
0001f0 c1 8d e2 bf 89 24 80 3f b4 c9 d0 3f b9 62 d4 3f
       -1.769951 1.001115 1.6311555 1.6592628
